model_1_PPO.pt (torch, 254041 bytes, 69 tensors)

weight f4 [64, 6]
-0.7047265 -0.34938225 -0.14610098 -0.519624 -0.16411206 -0.059459 -0.26022875 -0.6703442
-0.105003126 -0.08743937 -0.17994931 -0.016981455 -0.7697041 -0.5254144 -1.4417306 -1.3934499
-0.49619207 -1.3850303 -0.23745252 -0.078427106 0.2674716 0.0005388856 0.20418811 -0.12223309
0.0033627567 -0.04297182 -0.5190195 -0.5839603 0.07694087 -0.38613617 -0.07544395 -0.07726837
-0.29432878 -0.350192 -0.035069987 0.028518273 -0.5499533 -0.4883405 -0.6859138 -0.08089794
-0.6829628 -0.32690218 -0.19295436 -0.17917372 -0.08367287 -0.66275215 -0.09103361 -0.33179927
-0.21284382 0.055763602 0.06440312 -0.26188526 0.01362437 -0.2734115 -0.39888343 -0.15128225
-0.23702283 -0.028349562 0.07842175 0.019041268 0.022564804 0.3376383 0.61985475 0.59720635
0.07717651 0.6416125 -0.113918364 0.101279795 -0.24975695 -0.015648812 0.19710726 0.2493763
-0.5315174 -0.5361056 -0.40843084 -0.011895646 -0.028917754 -0.3168169 -0.30380934 -0.1025456
-0.27792105 -0.6954688 -0.2116857 -0.42569676 -0.05382273 0.49893418 0.59333223 0.22617589
0.6284514 0.08755302 -0.029859554 -0.34705564 -0.27227366 0.04869064 -0.69157267 -0.32667038
-0.50420743 0.5720334 0.16806254 0.09163926 0.23372787 0.02824307 -0.22168748 -0.15980482
-0.29316232 -0.3279383 -0.0043020546 -0.40060925 0.6496324 -0.05131463 0.24222222 0.6146789
0.36414048 0.59794164 0.015399938 0.54681665 0.64510745 0.31997624 0.17441233 0.22650225
-0.26475006 0.003726542 -0.35407174 -0.24165107 0.15967488 -0.0735755 -0.29282075 -1.3225533
-0.9414751 -0.28941375 -1.434109 -0.597817 0.2680995 -0.23164825 -0.16465746 -0.13109028
-0.016966522 0.13341486 0.35801727 0.75933886 0.124723256 0.6352878 0.39431062 0.61013335
-0.32611033 -0.23906532 -0.298617 -0.43827674 -0.08892306 -0.13010146 -0.11963874 -0.16813
-0.22203901 0.2321508 -0.04466495 -0.2863134 0.5351726 0.60616773 0.08515322 0.6365361
0.5500132 0.6733956 0.53693986 0.8407781 0.23471373 0.16418986 0.62220514 0.5352183
-0.051701933 -0.33071482 -0.28513396 -0.068648495 0.023314836 -0.15176003 -0.3191792 -0.62416077
0.36138543 0.61891645 -0.3697122 0.32193097 -0.06984306 0.38987637 0.74266225 0.4807837
0.3056366 -0.00069073326 0.077300906 0.16027415 -0.2516451 0.20084554 0.124664605 0.029899687
0.07064667 0.56603473 0.30175987 0.34655964 0.20089759 0.23091726 0.66292715 0.664912
0.65357035 0.5441603 0.47794333 0.19626004 -0.42477286 -0.16699766 -0.17566597 -0.10005411
-0.43082026 -0.43381247 0.31424186 0.071782835 -0.21256877 0.101186395 -0.05541017 -0.14325932
-0.07515162 0.037397236 -0.38301855 0.16996354 0.36281782 0.1011979 -0.11652897 -0.9395068
-0.25908366 -0.6411325 -1.3943638 -0.71939677 -0.47525117 0.054392997 -0.30373362 -0.21476051
-0.080780424 -0.5082067 -0.15590076 -1.2332104 -0.8012437 -0.3848652 -1.712619 -0.8445494
-0.26959312 -0.18248948 -0.24894427 -0.05770591 -0.2778346 0.28464466 -0.37746117 -0.6032964
0.012866235 -0.068584025 -0.5076581 -0.06843832 0.15406208 0.2452995 -0.040309317 0.07108925
00000000: f568 34bf 3be2 b2be 7f9b 15be 1406 05bf
00000010: fe0c 28be 488b 73bd b43c 85be ad9b 2bbf
00000020: e10b d7bd 6a13 b3bd a244 38be b11c 8bbc
00000030: 540b 45bf 8f81 06bf a18a b8bf 915c b2bf
00000040: e30c febe ac48 b1bf c126 73be 649e a0bd
00000050: 0af2 883e 0044 0d3a b016 513e 5855 fabd
00000060: b261 5c3b 3803 30bd 76de 04bf 6c7e 15bf
00000070: 2d93 9d3d a4b3 c5be 5c82 9abd e13e 9ebd
00000080: 43b2 96be 5e4c b3be 8ca5 0fbd 279f e93c
00000090: bdc9 0cbf c407 fabe 0c98 2fbf d2ad a5bd
000000a0: a6d6 2ebf b95f a7be d495 45be 5179 37be
000000b0: af5c abbd 20aa 29bf d46f babd 98e1 a9be
000000c0: bbf3 59be 6068 643d c8e5 833d d315 86be
000000d0: c038 5f3c 98fc 8bbe 733a ccbe bce9 1abe
000000e0: 1db6 72be 573d e8bc 959b a03d 6ffc 9b3c
000000f0: d3d9 b83c edde ac3e cdae 1e3f 84e2 183f
00000100: b80e 9e3d b840 243f 084e e9bd c86b cf3d
00000110: 49c0 7fbe f031 80bc 7cd6 493e 805c 7f3e
00000120: 8611 08bf 373e 09bf d91d d1be f5e5 42bc
00000130: ede4 ecbc d335 a2be e68c 9bbe 6d03 d2bd
00000140: ab4b 8ebe 3e0a 32bf 23c4 58be edf4 d9be
00000150: 3975 5cbd 4d74 ff3e 9fe4 173f a79a 673e
00000160: 31e2 203f ff4e b33d 069c f4bc 47b1 b1be
00000170: 7467 8bbe d66f 473d e80a 31bf 5741 a7be
00000180: bd13 01bf c870 123f 9618 2c3e 5dad bb3d
00000190: 5c56 6f3e 035e e73c 0b02 63be e0a3 23be
000001a0: 5f19 96be 87e7 a7be 40f8 8cbb a81c cdbe
000001b0: 4f4e 263f 4a2f 52bd 1a09 783e 995b 1d3f
000001c0: 9f70 ba3e b412 193f 0650 7c3c 2dfc 0b3f
000001d0: c325 253f edd3 a33e 2599 323e 35f0 673e
000001e0: 528d 87be 0039 743b e448 b5be 6173 77be
000001f0: d081 233e c0ae 96bd 9aec 95be 6d49 a9bf
00000200: 8304 71bf 0a2e 94be e290 b7bf 890a 19bf
00000210: 5644 893e 3335 6dbe f79b 28be 883c 06be
00000220: 60fd 8abc e89d 083e 0a4e b73e 0864 423f
00000230: e86e ff3d 39a2 223f 15e3 c93e b331 1c3f
00000240: eff7 a6be 8acd 74be 54e4 98be cf65 e0be
00000250: 4b1d b6bd 5139 05be 2805 f5bd 452a 2cbe
00000260: 325e 63be f0b8 6d3e 98f2 36bd ac97 92be
00000270: 1201 093f cf2d 1b3f d064 ae3d 08f4 223f
00000280: aacd 0c3f a763 2c3f e474 093f 3c3d 573f
00000290: cc58 703e 6321 283e d648 1f3f 1104 093f
000002a0: 68c5 53bd 7453 a9be 14fd 91be 9597 8cbd
000002b0: c1fe be3c fb66 1bbe 756b a3be 00c9 1fbf
000002c0: 8307 b93e 4f71 1e3f eb4a bdbe 23d4 a43e
000002d0: e109 8fbd e09d c73e 1d1f 3e3f 4829 f63e
000002e0: 677c 9c3e 5312 35ba f04f 9e3d e81e 243e
000002f0: a0d7 80be 74aa 4d3e 2850 ff3d 30f0 f43c
00000300: 34af 903d a7e7 103f 4580 9a3e 4470 b13e
00000310: 19b8 4d3e 9375 6c3e 98b5 293f ac37 2a3f
00000320: 6350 273f 174e 0b3f fdb4 f43e 64f8 483e
00000330: d47b d9be 6f01 2bbe c8e1 33be 2be9 ccbd
00000340: 7994 dcbe ab1c debe 4fe4 a03e e102 933d
00000350: a1ab 59be d03a cf3d c6f5 62bd 92b2 12be
00000360: 18e9 99bd d82d 193d 021b c4be ec0a 2e3e
00000370: 42c3 b93e d840 cf3d bea6 eebd 8583 70bf
00000380: 9da6 84be 4221 24bf 837a b2bf 632a 38bf
00000390: 1f54 f3be 31cb 5e3d f982 9bbe 2eea 5bbe
000003a0: 3570 a5bd d619 02bf 73a4 1fbe d7d9 9dbf
000003b0: 4f1e 4dbf 0d0d c5be 1937 dbbf 6434 58bf
000003c0: 1c08 8abe 86de 3abe 3feb 7ebe 085d 6cbd
000003d0: 5640 8ebe f2bc 913e 9742 c1be a271 1abf
000003e0: e7cc 523c c875 8cbd e2f5 01bf 6429 8cbd
000003f0: 73c2 1d3e cb2f 7b3e 621b 25bd 3e97 913d

bias f4 [64]
-0.2989622 -0.32960656 -1.1483566 -0.3052026 -0.284954 -0.5972038 -0.34579515 -0.4580861
-0.034546882 -0.4405113 0.5563654 -0.38801676 -0.03258208 -0.23091577 0.46687663 -0.3237751
-0.41171736 0.099728465 0.53176284 0.8101043 -0.3016364 -0.67744684 -0.25812447 0.6347487
-0.475725 0.0009213984 0.4235527 0.7473312 -0.3108345 0.45413536 0.52640814 -0.31597677
0.7846697 -0.025958128 0.0070139715 0.21370818 -0.31898257 -0.21229365 -0.2108338 -0.3046419
-0.057139188 -0.27150407 0.41293138 0.4531916 -0.060004205 0.18505073 0.74979764 -0.45962346
0.012172618 -0.46963298 -0.29365113 -0.83665746 -0.06962526 -0.3649752 0.32752907 -0.09716198
-0.040778935 0.64055943 0.54926515 0.30079228 -0.47992143 0.79354244 -0.20433113 0.101975776
00000000: 9311 99be 31c2 a8be 59fd 92bf 8443 9cbe
00000010: 7ee5 91be 59e2 18bf 100c b1be 438a eabe
00000020: 0881 0dbd b28a e1be f66d 0e3f 22aa c6be
00000030: ca74 05bd 2f75 6cbe 740a ef3e dac5 a5be
00000040: 9ecc d2be 703e cc3d 9c21 083f ff62 4f3f
00000050: 1670 9abe 286d 2dbf e428 84be e47e 223f
00000060: 3a92 f3be 008a 713a e6db d83e 1951 3f3f
00000070: b325 9fbe 6e84 e83e afc2 063f b5c7 a1be
00000080: 1de0 483f 24a6 d4bc 75d5 e53b 51d6 5a3e
00000090: af51 a3be 8263 59be d1e4 57be 06fa 9bbe
000000a0: c80a 6abd 9502 8bbe be6b d33e bb08 e83e
000000b0: f8c6 75bd f07d 3d3e bdf2 3f3f c453 ebbe
000000c0: a96f 473c bc73 f0be 7159 96be 2f2f 56bf
000000d0: b097 8ebd 08de babe e4b1 a73e dcfc c6bd
000000e0: d007 27bd b4fb 233f a49c 0c3f 7201 9a3e
000000f0: 43b8 f5be 9925 4b3f 2e3c 51be add8 d03d

weight f4 [64, 64]
0.37294182 0.34886068 0.77142626 -0.009572074 -0.28271583 -0.3203987 -0.33078647 -0.30535543
0.0731013 0.2309765 0.41194022 -0.11866556 0.23091829 -0.3403013 0.16600329 0.21514194
0.39702097 0.119779915 0.34182698 0.44993672 -0.08947314 -0.37677217 -0.008045867 0.36749595
0.4119608 0.061418965 0.45004833 0.574045 0.37247366 0.24714571 0.55285394 -0.05007291
0.3669809 0.17642824 0.2863139 0.3597238 -0.06735723 0.09693593 0.22660649 -0.38620442
-0.06986959 0.3475885 0.3722911 2.6726701 -0.088962615 0.086052105 0.3758076 0.5032592
0.18774554 0.3565712 -0.075436324 0.8379434 0.37680313 -0.0043820143 0.012264386 0.09431012
-0.06702541 0.4488563 0.4870148 0.39791492 -0.2948525 0.47626385 -0.048877373 0.12341744
0.423472 0.3492605 -0.90896505 -0.0480586 0.3453447 0.23108648 0.15128087 0.25436893
-0.11693822 0.3441876 -0.21903312 -0.025998086 0.30486917 0.18085489 -0.35596013 0.3421446
0.26110393 0.0777338 -0.23066749 -0.15500519 0.06178622 -0.8144627 -0.017786562 -0.225142
0.29597673 -0.11350632 -0.29069042 -0.16212292 0.42525804 -0.13428071 -0.102742955 -0.04636562
-0.16906746 -0.26169047 0.4740171 -0.065058604 -0.008537695 0.18254413 0.30885878 -0.7204667
-0.11778596 0.2746162 -0.24427953 0.57610816 -0.011098698 -0.04133822 -0.09028276 -0.4838717
0.2764065 0.20647292 -0.030877734 0.7621433 0.4097055 -0.06588599 -0.09395482 -0.11611846
0.05325836 -0.17566016 -0.17815109 -0.3298303 -0.2157117 -0.14285018 0.06843628 -0.35325485
-0.24123383 -0.2668523 -0.9279919 -0.025828749 -0.27383447 -0.1794464 0.27290308 0.33789226
0.104654 -0.20883799 -0.27548844 -0.05704996 -0.23720638 0.4200156 -0.40136528 -0.31843784
-0.1949256 -0.083333 -0.37175477 -0.40484875 -0.018040493 -0.6338718 0.11798011 -0.26576212
-0.36947566 0.08091411 -0.41225225 -0.3823213 -0.24682954 -0.25161102 -0.24111691 -0.021570146
-0.3608529 -0.5434517 -0.381019 -0.21951164 -0.096718594 0.27529427 -0.23322985 -0.7009675
-0.09307149 -0.22698978 -0.37304428 0.63854176 -0.03203085 -0.10489386 -0.3851583 -0.3170688
-0.23859969 -0.36789635 -0.2408658 0.8552998 -0.2698582 -0.09413096 0.023902893 -0.11308169
-0.08451329 -0.21761279 -0.31026065 -0.026056945 -0.18087617 -0.21110088 0.11189088 -0.38733065
-0.40274486 -0.3421677 -0.83556485 0.07905392 -0.22492282 -0.19234204 0.40779713 0.21616344
-0.084998935 -0.28856096 -0.3329383 -0.10743651 -0.2573588 0.18783057 -0.49609643 -0.3986505
-0.38361076 -0.052597627 -0.42430586 -0.43481633 -0.006809622 -0.82989013 -0.07614398 -0.40098023
-0.20105897 -0.07616192 -0.27488142 -0.34251377 -0.18879904 -0.2455999 -0.56908 0.08501388
-0.45389813 -0.039907146 -0.19312088 -0.18630892 0.1056193 0.24825817 -0.19568667 -0.56189746
0.038856804 -0.21400107 -0.3940149 0.6533838 -0.049849704 0.06398058 -0.46961075 -0.4029513
-0.41529176 -0.26495907 -0.12914224 0.82475877 -0.31556267 0.014213905 -0.11927763 -0.017093807
-0.050253227 -0.29454577 -0.48324865 -0.04461169 0.3255152 -0.43457988 -0.09534633 -0.6370932
00000000: 3bf2 be3e de9d b23e 317c 453f 30d4 1cbc
00000010: 21c0 90be 4c0b a4be d85c a9be 8c57 9cbe
00000020: 22b6 953d 1b85 6c3e d4e9 d23e ee06 f3bd
00000030: d875 6c3e f93b aebe c4fc 293e 2b4e 5c3e
00000040: 5546 cb3e 2c4f f53d f203 af3e 1b5e e63e
00000050: b23d b7bd 48e8 c0be d0d2 03bc 6e28 bc3e
00000060: 87ec d23e 7492 7b3d bc6c e63e 9df4 123f
00000070: deb4 be3e c413 7d3e d687 0d3f 4019 4dbd
00000080: ece4 bb3e 9ba9 343e bc97 923e b82d b83e
00000090: 96f2 89bd 5886 c63d 880b 683e 96bc c5be
000000a0: ca17 8fbd 1ff7 b13e f09c be3e 070d 2b40
000000b0: 0832 b6bd 163c b03d db69 c03e 98d5 003f
000000c0: 5e40 403e 8090 b63e 5c7e 9abd 7583 563f
000000d0: 57ec c03e 0097 8fbb 90f0 483c aa25 c13d
000000e0: 9e44 89bd 7ed0 e53e 015a f93e 81bb cb3e
000000f0: e8f6 96be dbd8 f33e a433 48bd 48c2 fc3d
00000100: 52d1 d83e 46d2 b23e efb1 68bf 18d9 44bd
00000110: 05d1 b03e efa1 6c3e 5fe9 1a3e a53c 823e
00000120: 4e7d efbd 5b39 b03e 384a 60be f0f9 d4bc
00000130: d017 9c3e 0632 393e 6840 b6be 942d af3e
00000140: 6aaf 853e e632 9f3d 1934 6cbe aeb9 1ebe
00000150: 8c13 7d3d a180 50bf 20b5 91bc a08b 66be
00000160: 438a 973e 0076 e8bd 60d5 94be 8d03 26be
00000170: 6cbb d93e e280 09be e66a d2bd e0e9 3dbd
00000180: 0520 2dbe 4bfc 85be 5fb2 f23e 723d 85bd
00000190: b0e1 0bbc d9ec 3a3e bd22 9e3e 8170 38bf
000001a0: c439 f1bd 7f9a 8c3e 6a24 7abe d37b 133f
000001b0: 50d7 35bc 4452 29bd 2be6 b8bd 08be f7be
000001c0: 2785 8d3e a36d 533e 4df3 fcbc d31b 433f
000001d0: ebc4 d13e 3cef 86bd 626b c0bd 84cf edbd
000001e0: 7025 5a3d 42e0 33be 3d6d 36be 84df a8be
000001f0: 87e3 5cbe 5147 12be 5228 8c3d d2dd b4be
00000200: 0006 77be dda0 88be e190 6dbf d096 d3bc
00000210: 0834 8cbe ccc0 37be f4b9 8b3e 3700 ad3e
00000220: d654 d63d a0d9 55be d20c 8dbe 38ad 69bd
00000230: 3be6 72be 490c d73e c07f cdbe 490a a3be
00000240: 949a 47be 7eaa aabd a456 bebe 5648 cfbe
00000250: a8c9 93bc 6c45 22bf 8e9f f13d f911 88be
00000260: ea2b bdbe 4cb6 a53d ba12 d3be 9ebf c3be
00000270: e2c0 7cbe 29d3 80be 5ae7 76be e0b3 b0bc
00000280: b6c1 b8be a71f 0bbf ec14 c3be a9c7 60be
00000290: 6614 c6bd 5ff3 8c3e ced3 6ebe 9b72 33bf
000002a0: 449c bebd 0270 68be a9ff bebe 7977 233f
000002b0: c832 03bd 98d2 d6bd 7833 c5be d756 a2be
000002c0: 7a53 74be e95c bcbe 86a5 76be edf4 5a3f
000002d0: db2a 8abe bcc7 c0bd 00d0 c33c 6097 e7bd
000002e0: 4e15 adbd e3d5 5ebe 7cda 9ebe 6075 d5bc
000002f0: 9a37 39be d42a 58be 0c27 e53d 3450 c6be
00000300: 9334 cebe 9b30 afbe 94e7 55bf 06e7 a13d
00000310: 2b52 66be 50f5 44be c9ca d03e f359 5d3e
00000320: ec13 aebd 43be 93be e476 aabe ac07 dcbd
00000330: 88c4 83be a856 403e 5a00 febe eb1b ccbe
00000340: a168 c4be 9c70 57bd 9e3e d9be 3fa0 debe
00000350: 4023 dfbb ae73 54bf 60f1 9bbd 484d cdbe
00000360: 67e2 4dbe c8fa 9bbd 42bd 8cbe f75d afbe
00000370: 8954 41be 8a7e 7bbe 3aaf 11bf c21b ae3d
00000380: 5665 e8be ad75 23bd 7bc1 45be c4c7 3ebe
00000390: ee4e d83d 6437 7e3e 1662 48be 83d8 0fbf
000003a0: 5028 1f3d 1923 5bbe 52bc c9be 2944 273f
000003b0: 342f 4cbd 4008 833d d270 f0be a24f cebe
000003c0: 1fa1 d4be b7a8 87be dd3d 04be 6423 533f
000003d0: 6e91 a1be 70e1 683c d447 f4bd 5008 8cbc
000003e0: 54d6 4dbd b4ce 96be 5e6c f7be bfba 36bd
000003f0: eea9 a63e 4181 debe f044 c3bd 8a18 23bf

bias f4 [64]
0.4182245 0.037945423 -0.20070912 -0.29514423 0.2836814 0.059250742 -0.29668257 -0.38368753
0.03839358 -0.28749928 -0.184819 0.088778414 -0.22937422 -0.28708956 0.19758749 -0.19582252
0.43271953 -0.37849167 0.4230609 -0.33248016 -0.34490156 -0.41348293 -0.082093604 -0.23763365
-0.23418 0.23121394 -0.24881785 -0.18746585 0.4187299 0.4111 0.45313042 0.042254005
-0.28288278 0.14217372 -0.25402653 0.45633915 0.29273757 -0.14434615 0.42428914 -0.22555569
0.02689548 0.09515328 -0.20378663 -0.4230068 0.079213135 -0.33393613 -0.18491583 0.082535096
0.44356838 0.33127883 0.3792787 -0.3690132 -0.3178213 0.100655325 0.19612506 -0.04155758
0.45331872 -0.045674205 -0.15251733 0.41025153 -0.1264891 0.4220457 -0.00537741 0.38199085
00000000: 8621 d63e a96c 1b3d b186 4dbe 251d 97be
00000010: b03e 913e e8b0 723d c7e6 97be b172 c4be
00000020: 9642 1d3d 1b33 93be 3141 3dbe 75d1 b53d
00000030: 13e1 6abe 67fd 92be 6054 4a3e b385 48be
00000040: 6a8d dd3e a9c9 c1be 709b d83e d73a aabe
00000050: f096 b0be 09b4 d3be b120 a8bd 3c56 73be
00000060: e2cc 6fbe 59c3 6c3e 1bca 7ebe 0cf7 3fbe
00000070: c463 d63e b37b d23e b600 e83e 8912 2d3d
00000080: 03d6 90be fd95 113e c40f 82be 49a5 e93e
00000090: b3e1 953e 7acf 13be 6d3c d93e 12f8 66be
000000a0: e953 dc3c b9df c23d 71ad 50be 5994 d8be
000000b0: 7f3a a23d adf9 aabe 935a 3dbe 2908 a93d
000000c0: 651b e33e 619d a93e d130 c23e 4cef bcbe
000000d0: 79b9 a2be 6124 ce3d 02d5 483e 4838 2abd
000000e0: 6419 e83e e014 3bbd 812d 1cbe 7d0c d23e
000000f0: 5c86 01be 6016 d83e fc34 b0bb 4e94 c33e

weight f4 [64]
1.6137124 0.6956623 0.69972503 0.6997293 1.4499489 0.9305846 0.6688042 0.6997263
1.0046777 0.6997323 0.7220586 0.89247775 0.6682656 0.6997256 0.6974989 0.69972533
1.5191423 0.6997376 1.5642726 0.7405843 0.69972587 0.69972545 0.7736052 0.6997267
0.7014806 0.89308745 0.69972575 0.6997257 1.7233021 1.5968075 1.5475315 0.8424608
0.69975847 0.949426 0.6997256 1.0613723 1.4382036 0.72206575 0.9994099 0.7221216
0.6388556 1.0284873 0.75145817 0.69975 0.82138026 0.69972515 0.6997252 0.8826736
1.6097013 1.1025636 1.6043694 0.6997263 0.69973445 0.8888524 0.85131663 0.3118865
1.7692448 0.85109013 0.6954233 1.0263537 0.7396901 1.479562 0.7220643 1.2199807
00000000: 218e ce3f ed16 323f 2e21 333f 7621 333f
00000010: ed97 b93f cb3a 6e3f c136 2b3f 4321 333f
00000020: 4799 803f a821 333f d5d8 383f 6c79 643f
00000030: 7413 2b3f 3821 333f 4a8f 323f 3321 333f
00000040: 4173 c23f 0122 333f 163a c83f ef96 3d3f
00000050: 3c21 333f 3521 333f fe0a 463f 4a21 333f
00000060: 3c94 333f 61a1 643f 3a21 333f 3921 333f
00000070: 2a95 dc3f 3064 cc3f 8315 c63f 83ab 573f
00000080: 5f23 333f 950d 733f 3821 333f 0cdb 873f
00000090: 0e17 b83f 4dd9 383f 54d9 7f3f f6dc 383f
000000a0: 0a8c 233f 79a5 833f 905f 403f d122 333f
000000b0: fa45 523f 3021 333f 3121 333f e6f6 613f
000000c0: b10a ce3f ce20 8d3f fa5b cd3f 4321 333f
000000d0: cc21 333f d58b 633f e3ef 593f 96af 9f3e
000000e0: 9d76 e23f 0be1 593f 4307 323f 8f5f 833f
000000f0: 555c 3d3f 4a62 bd3f 35d9 383f 5428 9c3f

bias f4 [64]
0.74245447 -0.21442752 -0.30027518 -0.3002747 0.47238418 -0.2827062 -0.3054974 -0.30027512
0.07665203 -0.30022404 -0.27794287 -0.06925894 -0.2626456 -0.30027506 -0.32984674 -0.300275
0.5685149 -0.3002732 0.6218595 -0.3080032 -0.30027357 -0.30027503 -0.18121746 -0.3002747
-0.24779011 -0.047759008 -0.30027518 -0.300275 0.541468 0.61538625 0.5625831 0.019017117
-0.30027485 0.08542079 -0.30027506 0.3088667 0.5529246 -0.27794257 0.42811134 -0.27794302
-0.35940418 0.28395283 -0.19020958 -0.30027497 -0.110187165 -0.30027518 -0.30027518 -0.092194825
0.66665083 0.37521246 0.63263094 -0.30027378 -0.30027455 -0.14278403 0.046078864 -0.60616523
0.7536906 -0.15447466 -0.259129 0.64711666 -0.18336245 0.5345308 -0.27794206 0.28558603
00000000: 7f11 3e3f e392 5bbe abbd 99be 9bbd 99be
00000010: 57dc f13e debe 90be 286a 9cbe a9bd 99be
00000020: bdfb 9c3d f7b6 99be 874e 8ebe a2d7 8dbd
00000030: 7c79 86be a7bd 99be ace1 a8be a5bd 99be
00000040: 318a 113f 69bd 99be 2f32 1f3f 98b2 9dbe
00000050: 75bd 99be a6bd 99be 1291 39be 9bbd 99be
00000060: b1bc 7dbe f39e 43bd abbd 99be a5bd 99be
00000070: a69d 0a3f f489 1d3f 7205 103f c9c9 9b3c
00000080: a0bd 99be 18f1 ae3d a7bd 99be c723 9e3e
00000090: 778c 0d3f 7d4e 8ebe 6931 db3e 8c4e 8ebe
000000a0: d303 b8be 4462 913e 4dc6 42be a4bd 99be
000000b0: cfa9 e1bd abbd 99be abbd 99be a4d0 bcbd
000000c0: a1a9 2a3f d91b c03e 1af4 213f 7cbd 99be
000000d0: 96bd 99be fa35 12be 31bd 3c3d a52d 1bbf
000000e0: def1 403f 9b2e 1ebe 8eac 84be 70a9 253f
000000f0: 5ec3 3bbe 03d7 083f 6c4e 8ebe 5538 923e

weight f4 [64, 64]
-0.64088076 0.3935199 -0.22204217 -0.2928259 -0.6142639 0.32172054 0.29358602 -0.34351322
-0.12455989 -0.24637702 0.392505 0.32602048 0.34444124 -0.3284648 0.40214732 -0.17611238
-0.5853421 -0.42213172 -0.7424961 0.43190935 -0.40445703 -0.22585146 0.41850206 -0.31166294
0.4276915 0.0371067 -0.27903122 -0.28397962 -0.55640674 -0.5242293 -0.4761993 0.020510796
-0.27973592 -0.15736724 -0.3482006 -0.12349772 -0.5517796 0.38668218 -0.06071373 0.24277474
0.29862693 0.16562907 0.44252777 -0.18520565 0.4819947 -0.41809243 -0.4049822 0.47178164
-0.4618238 0.38061047 -0.6269114 -0.24032106 0.28876787 0.34725767 0.5333774 0.36054575
-0.57726574 0.34381095 0.45038083 -0.575407 0.5449023 -0.48394528 0.1790823 0.7509934
0.37965095 -0.08015158 0.22187072 0.3499117 0.16983198 0.031502113 0.07327992 0.1843115
0.07810665 0.18633887 0.23942558 0.08364326 0.014010284 0.22859557 -0.0659831 0.21960536
0.17112863 0.28476 0.24922653 0.21149121 0.30369818 0.27665982 0.08819787 0.3898876
0.15438503 0.0027467387 0.21334657 0.34741682 0.25978747 0.38810298 0.37350887 0.063245565
0.35098082 -0.028162926 0.27797133 0.10653284 0.23410429 0.35218373 0.29211977 0.3565337
-0.054000814 0.2205653 -0.020136055 0.19153647 -0.013142812 0.21606095 0.36788008 -0.028377531
0.39282793 0.24687015 0.22636299 0.24130046 -0.27697158 0.021103859 0.005808109 0.3563415
0.2812301 -0.08290026 -0.019141989 0.22217879 0.17215525 0.16925487 0.2915941 0.27980223
0.14186779 0.009694417 0.18727241 -0.31376702 0.105898805 0.021862118 0.02124814 0.1907239
0.11148451 0.20395547 0.15483591 0.012975681 0.07469603 0.1964672 -0.042229686 0.18512738
0.18223715 0.28218782 0.15588793 0.20354158 0.24327365 0.32558882 0.11126179 0.18744183
0.052692004 0.045888085 0.41436675 0.3484992 0.13645655 0.19268823 0.2545152 0.10840106
0.25812536 0.06977363 -0.18341653 0.032914303 0.23478615 0.2832749 -0.054814704 0.19100614
-0.14903069 0.12296417 0.031806268 0.23025057 0.09646382 0.34855637 0.38272458 0.05763021
0.22917835 -0.046679888 0.14219657 0.26613054 -0.23523436 -0.10458186 0.0474197 0.27837056
0.114234276 -0.0002727906 -0.008314171 0.3592168 0.17785756 0.22454691 0.329963 0.29226372
0.4101674 0.16332008 0.29652563 0.3319246 0.37878466 0.06988707 -0.06739806 0.23168477
0.18400298 0.33078757 -0.32633466 -0.018923448 0.08652001 0.39896512 0.17121273 0.39641884
0.32509658 0.29287302 0.51287585 -0.08921107 0.20663963 0.3490062 0.106161304 0.33895546
0.06579492 0.11931203 0.26071694 0.19403923 0.4621028 0.45693234 0.4545501 0.11576069
0.29411653 0.01694028 0.21063803 0.3402523 0.37622222 -0.20030002 0.44381177 -0.19549678
0.15149164 -0.092493296 0.13037127 0.31780598 0.03642717 0.31012475 0.21732862 0.023994625
0.51489425 0.40632853 0.3608143 0.40856394 -0.21383123 0.07959056 0.62430197 -0.15813267
0.5119878 0.10078542 0.045477703 0.4550749 0.08020709 0.35275146 -0.31999883 0.1974278
00000000: c310 24bf 717b c93e 065f 63be 47ed 95be
00000010: 6640 1dbf 8eb8 a43e e850 963e f7e0 afbe
00000020: 4119 ffbd 424a 7cbe 6af6 c83e 28ec a63e
00000030: 9a5a b03e 8a2c a8be 41e6 cd3e ce56 34be
00000040: fbd8 15bf a621 d8be 3914 3ebf 3923 dd3e
00000050: fe14 cfbe 9b45 67be e745 d63e 4992 9fbe
00000060: 61fa da3e 32fd 173d 2edd 8ebe c765 91be
00000070: ac70 0ebf e433 06bf 65d0 f3be 4206 a83c
00000080: 8c39 8fbe e124 21be 5947 b2be 5fec fcbd
00000090: 6e41 0dbf 35fb c53e f6ae 78bd f199 783e
000000a0: a1e5 983e ab9a 293e 0093 e23e 8da6 3dbe
000000b0: 02c8 f63e 3610 d6be d459 cfbe 5d8d f13e
000000c0: 2b74 ecbe 60df c23e 447d 20bf b916 76be
000000d0: 62d9 933e c2cb b13e 6c8b 083f 7499 b83e
000000e0: b0c7 13bf fd07 b03e 5198 e63e e04d 13bf
000000f0: b87e 0b3f adc7 f7be 5a61 373e 1a41 403f
00000100: 9c61 c23e 8326 a4bd 1432 633e a027 b33e
00000110: 6fe8 2d3e 5c08 013d c813 963d 27bc 3c3e
00000120: 61f6 9f3d 9ecf 3e3e fb2b 753e 284d ab3d
00000130: 648b 653c f514 6a3e 2622 87bd 3ae0 603e
00000140: 583c 2f3e 10cc 913e 3d35 7f3e 2791 583e
00000150: 547e 9b3e 5ba6 8d3e 16a1 b43d 599f c73e
00000160: 1c17 1e3e a102 343b 8677 5a3e 9ee0 b13e
00000170: dd02 853e 6fb5 c63e 8e3c bf3e e486 813d
00000180: c2b3 b33e f0b5 e6bc 4252 8e3e e42d da3d
00000190: 09b9 6f3e 6d51 b43e b990 953e 968b b63e
000001a0: f52f 5dbd dfdb 613e 5ef4 a4bc 2322 443e
000001b0: f354 57bc 153f 5d3e c75a bc3e ff77 e8bc
000001c0: be20 c93e 87cb 7c3e b3cb 673e 7817 773e
000001d0: 38cf 8dbe 00e2 ac3c f351 be3b 6572 b63e
000001e0: 64fd 8f3e 9dc7 a9bd a9cf 9cbc d682 633e
000001f0: 7749 303e 2651 2d3e d24b 953e 3d42 8f3e
00000200: ca45 113e 55d5 1e3c 57c4 3f3e 12a6 a0be
00000210: 79e1 d83d 2f18 b33c 9410 ae3c 204d 433e
00000220: fe51 e43d b4d9 503e 4e8d 1e3e f397 543c
00000230: 3bfa 983d b32e 493e 09f9 2cbd 0892 3d3e
00000240: 609c 3a3e ec7a 903e 16a1 1f3e 346d 503e
00000250: ba1c 793e 94b3 a63e 39dd e33d c0f0 3f3e
00000260: 92d3 573d 25f5 3b3d e127 d43e 7d6e b23e
00000270: 44bb 0b3e 1050 453e d14f 823e 6001 de3d
00000280: 0229 843e 7ae5 8e3d 8bd1 3bbe 26d1 063d
00000290: c86b 703e 6809 913e 6285 60bd 1d97 433e
000002a0: 809b 18be a4d4 fb3d 4a47 023d cec6 6b3e
000002b0: d38e c53d fb75 b23e 7af4 c33e a80d 6c3d
000002c0: bbad 6a3e 6933 3fbd fa9b 113e 4342 883e
000002d0: 47e1 70be 042f d6bd 293b 423d 9686 8e3e
000002e0: a9f3 e93d 5605 8fb9 2938 08bc 44eb b73e
000002f0: 4b20 363e a0ef 653e e9f0 a83e 97a3 953e
00000300: 7601 d23e 613d 273e 35d2 973e 05f2 a93e
00000310: 10f0 c13e f420 8f3d fe07 8abd c63e 6d3e
00000320: 476b 3c3e fd5c a93e 5615 a7be 5905 9bbc
00000330: 6731 b13d 2845 cc3e 6452 2f3e 69f7 ca3e
00000340: 0f73 a63e 74f3 953e d54b 033f 4bb4 b6bd
00000350: 5799 533e f1b0 b23e 196b d93d 928b ad3e
00000360: 7dbf 863d de59 f43d b17c 853e 38b2 463e
00000370: bd98 ec3e 09f3 e93e caba e83e f113 ed3d
00000380: 7196 963e 58c6 8a3c 7fb1 573e 8d35 ae3e
00000390: 33a0 c03e 731b 4dbe 4c3b e33e 4f30 48be
000003a0: a020 1b3e 206d bdbd 0c80 053e 77b7 a23e
000003b0: a834 153d acc8 9e3e 658b 5e3e 6090 c43c
000003c0: 1cd0 033f 4b0a d03e a7bc b83e 4b2f d13e
000003d0: 93f6 5abe 6000 a33d 41d2 1f3f 88ed 21be
000003e0: a211 033f 9668 ce3d d446 3a3d 94ff e83e
000003f0: 9d43 a43d d79b b43e e3d6 a3be 832a 4a3e

bias f4 [64]
-0.33760893 0.24961354 0.15769552 0.25629565 0.16853389 -0.17856078 0.17523092 0.2717122
-0.4201517 -0.27311325 0.39121965 -0.17362721 -0.14800666 0.20982349 0.43168014 -0.3117297
0.14676832 0.08346548 0.9605842 0.272193 0.72576255 -0.38643226 -0.91233885 -1.5488857
-0.21311721 0.4423915 -0.0057211844 0.32163784 0.01941595 -0.3680193 0.15318848 0.10143061
-0.05497177 0.3691846 -0.3878515 -0.10811797 -1.2833883 -0.19612193 -0.100213416 -0.2684654
0.43119997 -0.2280241 -0.38101915 0.23073213 -0.26338786 -1.4548032 0.21517734 -1.3102347
-0.12323972 -0.40201488 -0.0040364424 -1.383124 0.3479458 -0.08085138 0.36033088 -0.40240714
0.25766087 0.3678418 0.44955906 -1.3477993 0.3698301 0.29515615 0.33941126 -0.22204143
00000000: 14db acbe b19a 7f3e ef7a 213e 2f39 833e
00000010: 2694 2c3e a3d8 36be bc6f 333e dd1d 8b3e
00000020: 201e d7be 80d5 8bbe f14d c83e 55cb 31be
00000030: 0f8f 17be f8db 563e 2e05 dd3e 099b 9fbe
00000040: 6f4a 163e f3ef aa3d d9e8 753f e25c 8b3e
00000050: 93cb 393f 73da c5be 0a8f 69bf e341 c6bf
00000060: 663b 5abe 2481 e23e c678 bbbb b7ad a43e
00000070: 330e 9f3c 076d bcbe 71dd 1c3e daba cf3d
00000080: 142a 61bd c405 bd3e 7994 c6be f46c ddbd
00000090: 1146 a4bf 30d4 48be b13c cdbd 4c74 89be
000000a0: 3ec6 dc3e 267f 69be f114 c3be 0b45 6c3e
000000b0: c6da 86be fe36 babf 7357 5c3e c5b5 a7bf
000000c0: 1b65 fcbd e5d4 cdbe 2244 84bb 350a b1bf
000000d0: f425 b23e 6995 a5bd 4a7d b83e 4f08 cebe
000000e0: 20ec 833e c355 bc3e 9b2c e63e b084 acbf
000000f0: 5f5a bd3e b51e 973e 50c7 ad3e d45e 63be

weight f4 [64]
0.041485064 0.58558834 0.67739856 0.13657941 0.4899696 0.6226471 0.5530352 0.43941572
1.3002667 0.36879885 0.47840154 0.6997262 0.34786367 0.5510374 0.4893739 0.90097463
0.5808967 0.67482746 0.29359138 0.4149313 0.38291162 0.69973147 1.0 1.0
0.69972545 0.35880455 0.63521403 0.5810941 0.4896178 0.6997256 0.58954877 0.68807274
0.554521 0.38728797 0.6997254 0.7056049 1.0 0.69972664 0.4628821 0.6997257
0.3112205 0.69972515 0.6997255 0.4883283 1.3002741 1.0 0.12599966 1.0
0.55153984 0.6997293 0.58960176 1.0 -0.07006678 0.65837026 0.5719978 0.69972605
0.4930528 0.3028939 0.16275403 1.0 0.26955304 0.554682 0.26834822 0.69972557
00000000: 3eec 293d 1ee9 153f fe69 2d3f 79db 0b3e
00000010: 4cdd fa3e cd65 1f3f b793 0d3f 19fb e03e
00000020: 246f a63f 34d3 bc3e 0cf1 f43e 4221 333f
00000030: 301b b23e c910 0d3f 378f fa3e 46a6 663f
00000040: a5b5 143f 7ec1 2c3f 9c51 963e e071 d43e
00000050: fe0c c43e 9a21 333f 0000 803f 0000 803f
00000060: 3521 333f 3bb5 b73e 639d 223f 95c2 143f
00000070: 2faf fa3e 3821 333f abec 163f 8925 303f
00000080: 17f5 0d3f 9c4a c63e 3421 333f 86a2 343f
00000090: 0000 803f 4921 333f e2fe ec3e 3921 333f
000000a0: 4b58 9f3e 3021 333f 3621 333f 2b06 fa3e
000000b0: 626f a63f 0000 803f 0e06 013e 0000 803f
000000c0: b731 0d3f 7621 333f 24f0 163f 0000 803f
000000d0: 2c7f 8fbd f48a 283f 736e 123f 3f21 333f
000000e0: 6b71 fc3e e914 9b3e fea8 263e 0000 803f
000000f0: db02 8a3e a4ff 0d3f f064 893e 3721 333f

bias f4 [64]
-0.8375327 -0.46321273 -0.30825397 -0.39792353 -0.26261866 -0.3532121 -0.27820778 -0.3346745
-0.30027106 -0.5291731 -0.3014801 -0.30027497 -0.71168953 -0.26144472 -0.2863904 -0.69670534
-0.43503195 -0.30394873 -0.7569032 -0.58637273 -0.7964811 -0.30027488 0.0 0.0
-0.30027515 -0.38701996 -0.387588 -0.3651075 -0.71362835 -0.30027512 -0.2327441 -0.32134107
-0.34497446 -0.48716235 -0.30027503 -0.33665055 0.0 -0.300275 -0.530036 -0.30027515
-0.3213665 -0.30027506 -0.30027506 -0.54855657 -0.30027485 0.0 -0.50868356 0.0
-0.45295975 -0.300275 -0.29342297 0.0 -0.5972484 -0.27141398 -0.22556022 -0.30027488
-0.26579964 -0.5249065 -0.8234508 0.0 -0.3199368 -0.30108818 -0.4700522 -0.3002745
00000000: 8b68 56bf 382a edbe 77d3 9dbe a2bc cbbe
00000010: f475 86be 37d8 b4be 4071 8ebe 755a abbe
00000020: 21bd 99be e377 07bf 9a5b 9abe a4bd 99be
00000030: 4931 36bf 15dc 85be c3a1 92be 485b 32bf
00000040: 82bc debe 2b9f 9bbe 68c4 41bf 861c 16bf
00000050: 2fe6 4bbf a1bd 99be 0000 0000 0000 0000
00000060: aabd 99be 7b27 c6be ef71 c6be 5fef babe
00000070: 59b0 36bf a9bd 99be 7854 6ebe d186 a4be
00000080: 7ea0 b0be 586d f9be a6bd 99be 765d acbe
00000090: 0000 0000 a5bd 99be 70b0 07bf aabd 99be
000000a0: 268a a4be a7bd 99be a7bd 99be 346e 0cbf
000000b0: a0bd 99be 0000 0000 1639 02bf 0000 0000
000000c0: 57ea e7be a5bd 99be 893b 96be 0000 0000
000000d0: 45e5 18bf c6f6 8abe 42f9 66be a1bd 99be
000000e0: e416 88be 4660 06bf accd 52bf 0000 0000
000000f0: c2ce a3be 3b28 9abe afaa f0be 94bd 99be

weight f4 [1, 64]
0.68332964 0.019636502 0.017355796 -0.12678903 -0.085575335 -0.1682407 -0.10058363 -0.10163395
0.36598206 -0.18024091 -0.027691517 -0.28429604 -0.24952745 -0.059041556 -0.061913755 0.04591331
-0.019764485 0.0051953266 -0.033024933 -0.041142076 0.13531935 0.40308556 -0.09943041 0.0679031
-0.20441243 -0.0014547702 0.022425648 0.015814152 0.10141667 -0.2389001 -0.0450777 0.030018572
-0.2807797 0.0055550686 -0.25556222 -0.2598167 0.025222242 0.4090368 0.15879144 -0.20363191
-0.031562954 -0.2542085 -0.25725 -0.020912284 -0.355628 -0.11439486 -0.07004575 -0.10635249
-0.5583282 0.2165661 0.054497115 0.021999031 -0.11802671 0.295874 -0.073380575 -0.21697319
-0.08325795 -0.12732254 0.05750852 0.083528474 -0.017917247 -0.08966118 -0.11071043 -0.32928857
00000000: b1ee 2e3f bbdc a03c be2d 8e3c fcd4 01be
00000010: 1f42 afbd 4a47 2cbe cafe cdbd 7625 d0bd
00000020: 0062 bb3e 1391 38be 52d9 e2bc 408f 91be
00000030: 2084 7fbe 8fd5 71bd 4799 7dbd 980f 3c3d
00000040: 21e9 a1bc 8f3d aa3b 2745 07bd 9884 28bd
00000050: 2891 0a3e 3b61 ce3e 2ca2 cbbd c810 8b3d
00000060: 7e51 51be fdad beba feb5 b73c ae8c 813c
00000070: 8bb3 cf3d 3aa2 74be 65a3 38bd 82e9 f53c
00000080: 5bc2 8fbe 4b07 b63b 0dd9 82be b206 85be
00000090: e09e ce3c 456d d13e 399a 223e e284 50be
000000a0: 2848 01bd 9e27 82be 46b6 83be 3d50 abbc
000000b0: e014 b6be da47 eabd 2574 8fbd 56cf d9bd
000000c0: 99ee 0ebf 81c3 5d3e 5e38 5f3d 5037 b43c
000000d0: fdb7 f1bd cc7c 973e 8e48 96bd 382e 5ebe
000000e0: 2583 aabd d760 02be 0e8e 6b3d fa10 ab3d
000000f0: 31c7 92bc 48a0 b7bd 26bc e2bd 8398 a8be

weight f4 [1, 64]
-0.030264035 0.09165538 0.05277484 0.11107574 -0.03414385 0.22414957 -0.010930047 0.011515682
0.26553896 -0.3762826 0.03889659 0.2510773 0.29289657 0.039714653 0.02833047 0.3433412
0.11446953 0.07610775 -0.03105475 0.08707945 0.25612825 0.22698858 -0.053444073 0.118964255
0.25880778 0.033124547 0.115921624 0.110149264 0.05828576 0.23573546 0.11169506 0.0585899
-0.78913504 0.05948758 0.2726381 0.35383594 -0.11294651 0.17762193 0.31819344 0.2452074
0.057614867 0.2535659 0.25081176 0.1188546 0.18992376 -0.044748887 0.06932076 0.031433955
0.37624642 0.2402845 0.09073506 0.0389131 0.084954634 0.0189213 0.008132437 0.40255523
-0.0079717105 0.20131041 0.027084097 0.0058104396 -0.07368218 0.015475798 0.10116791 0.24376464
00000000: 48ec f7bc d1b5 bb3d 6e2a 583d ad7b e33d
00000010: 6cda 0bbd 7787 653e f113 33bc 45ac 3c3c
00000020: b9f4 873e 1da8 c0be 0852 1f3d 348d 803e
00000030: 8af6 953e d5ab 223d 4d15 e83c 6bca af3e
00000040: 006f ea3d 61de 9b3d 8866 febc b656 b23d
00000050: 3e23 833e b26f 683e 2ce8 5abd 88a3 f33d
00000060: 7482 843e 9bad 073d 5168 ed3d f095 e13d
00000070: 0dbd 6e3d a364 713e 61c0 e43d f7fb 6f3d
00000080: c104 4abf 40a9 733d 3997 8b3e fc29 b53e
00000090: 8050 e7bd 86e2 353e 40ea a23e a617 7b3e
000000a0: 91fd 6b3d 64d3 813e 666a 803e 0a6a f33d
000000b0: 607b 423e 9c4a 37bd 0bf8 8d3d e4c0 003d
000000c0: 5fa3 c03e 240d 763e 4ed3 b93d 5863 1f3d
000000d0: b2fc ad3d d800 9b3c ea3d 053c b81b ce3e
000000e0: c79b 02bc 5124 4e3e 78df dd3c 8065 be3b
000000f0: afe6 96bd 348e 7d3c 1f31 cf3d 709d 793e

weight f4 [64, 6]
1.4674037 -6.5410876 3.6560495 4.3946276 -7.2659607 36.020557 -2.5957923 -0.66004294
-3.5709536 -2.748017 -0.070881866 -2.2602744 -1.1820903 -0.585768 -0.6573137 -1.1202632
-0.8459979 -1.2983664 0.35866535 -0.15539327 -0.19595063 -0.31374556 -0.2556097 -0.27268827
-0.45990494 0.18839844 -1.3156722 -1.4869708 0.9709444 0.34401667 -0.51783013 -0.65217817
-0.43439934 -0.74203146 -0.7903386 -1.0059661 2.6307008 -7.191446 4.8164682 4.2676086
-8.414715 29.239405 -0.021158762 -0.15366603 -0.48026818 -0.4361836 -0.16685931 -0.003772806
0.06908491 -0.22076483 -0.4231245 -0.063111186 -0.30829573 0.020482477 -0.7034231 -0.320657
-0.050857257 -0.15334693 -0.1615071 -0.14311671 -2.10879 -21.298016 -1.5957738 -1.9207436
-20.28832 -0.35555533 -1.8214512 -1.3706487 -1.696232 -1.446765 -1.8990661 -1.2695249
-0.48465428 -0.07102049 -0.3100758 0.033806775 -0.046679463 -0.550645 0.20791328 0.20143878
-0.10635972 -0.19956478 0.07267144 -0.112103105 -0.14504394 0.17656058 -0.056301326 -0.06913364
-0.29593223 0.038501382 -0.28089905 -0.44325542 -0.1552447 -0.25914553 -0.025924278 -0.5386848
-0.026712188 -0.44804788 -1.1132746 -1.3329997 0.0040441197 0.56359017 -0.95188326 -1.1689116
-1.2435151 -1.2047411 -0.59472424 -1.0952702 -0.7010993 -0.57625276 -1.1603404 -0.7798909
-1.0787301 -0.58936507 -1.582224 -1.8671951 -1.2841921 -1.3482358 -1.2328882 -1.7407278
0.19488466 -0.0071454574 -0.07883119 -0.24091382 -0.42817494 0.032811552 -0.6932999 -0.58938813
-0.2960126 -0.59498847 -0.87443274 -0.2605308 -0.26904294 0.03549339 -1.2334423 -0.31820807
0.095947646 0.5924932 -2.6310356 -0.2441786 -2.7090025 -2.8335261 -0.29924825 -2.3098898
-1.6891874 -1.5489267 -1.3247973 -1.6840818 -1.3669996 -1.816091 -0.13034067 -0.115940064
-0.13520679 -0.3161496 0.034989417 -0.26782066 -0.33606353 -0.34988648 0.26649058 -0.3804144
-0.09672451 -0.2608414 -0.6559727 0.070365906 -0.920313 -0.52321756 0.1336777 0.37214956
-0.04259832 -0.48361066 -0.5185727 -0.2499896 -0.6062673 -0.015563286 -0.23145859 0.0038255232
-0.43786782 0.03919941 -0.50223666 -0.6325276 -0.3962052 -0.6422929 -1.1238785 -1.0071416
-0.31807548 0.053590488 -0.59949845 -0.6394931 -1.0861434 -1.1598216 -0.94412947 -0.602422
-0.676506 -0.3594077 -0.44742355 -0.8288071 -0.28797066 -0.20884928 2.9478557 9.451125
4.0117097 1.8707767 13.577326 -12.199296 -0.032544598 -0.6519107 -0.38075927 0.00023587195
-0.35026634 0.063083164 -0.14164135 0.05147267 -0.19801417 -0.6601595 -0.37372357 -0.38806474
-0.25798056 0.30862448 -0.90981925 -0.59957725 0.3823136 0.23952366 -1.2480253 -1.296055
-1.5304723 -1.2815362 -0.5664517 -1.0401429 -0.20930614 -0.28844914 -0.8962112 -1.061616
-0.023324965 -0.9366647 -1.4676274 -1.0844098 -1.6351508 -1.6624994 -1.6757749 -1.0685502
-2.006325 -20.2746 -1.7338344 -2.0017228 -20.590591 0.150101 -0.60648316 -0.58227545
-0.15676756 -1.2665854 -0.67972624 -0.7313435 -6.331936 -34.11412 -2.0292888 -6.5782056
00000000: e2d3 bb3f 9750 d1c0 b7fc 6940 caa0 8c40
00000010: c082 e8c0 0d15 1042 7621 26c0 93f8 28bf
00000020: 818a 64c0 83df 2fc0 832a 91bd 56a8 10c0
00000030: bc4e 97bf e4f4 15bf b645 28bf c964 8fbf
00000040: 5293 58bf df30 a6bf fca2 b73e 6a1f 1fbe
00000050: 48a7 48be 42a3 a0be 46df 82be cc9d 8bbe
00000060: a978 ebbe 85eb 403e f267 a8bf 0f55 bebf
00000070: d08f 783f f422 b03e 8490 04bf 26f5 26bf
00000080: 9769 debe c6f5 3dbf a153 4abf 7fc3 80bf
00000090: 675d 2840 5320 e6c0 8220 9a40 4090 8840
000000a0: aca2 06c1 4dea e941 2455 adbc a15a 1dbe
000000b0: b6e5 f5be 7553 dfbe 2bdd 2abe 2e41 77bb
000000c0: 647c 8d3d 2d10 62be c6a3 d8be 7040 81bd
000000d0: f0d8 9dbe deca a73c 8913 34bf 282d a4be
000000e0: b34f 50bd fa06 1dbe 1e62 25be 308d 12be
000000f0: 6af6 06c0 5662 aac1 5142 ccbf edda f5bf
00000100: 7b4e a2c1 590b b6be 5025 e9bf 6b71 afbf
00000110: 211e d9bf 982f b9bf 9914 f3bf cb7f a2bf
00000120: 9b24 f8be 3173 91bd 41c2 9ebe f978 0a3d
00000130: f732 3fbd 12f7 0cbf 38e7 543e f845 4e3e
00000140: 20d3 d9bd b65a 4cbe c4d4 943d 5096 e5bd
00000150: 6686 14be 4ccc 343e 389c 66bd f095 8dbd
00000160: 6e84 97be a0b3 1d3d 00d2 8fbe 60f2 e2be
00000170: 77f8 1ebe b9ae 84be 275f d4bc 3fe7 09bf
00000180: 85d3 dabc 8866 e5be c87f 8ebf bc9f aabf
00000190: 8984 843b 7247 103f 9fae 73bf e59e 95bf
000001a0: 812b 9fbf f534 9abf d93f 18bf d031 8cbf
000001b0: 3e7b 33bf 4d85 13bf 0986 94bf eea6 47bf
000001c0: d413 8abf a1e0 16bf 5186 cabf 4000 efbf
000001d0: 6860 a4bf fe92 acbf 48cf 9dbf 2bd0 debf
000001e0: d88f 473e 7124 eabb 3f72 a1bd 1db2 76be
000001f0: bf39 dbbe 6865 063d 1a7c 31bf 24e2 16bf
00000200: f78e 97be 2a51 18bf d3da 5fbf 4b64 85be
00000210: ffbf 89be 8461 113d 70e1 9dbf 2bec a2be
00000220: 3380 c43d a2ad 173f e362 28c0 f409 7abe
00000230: 4c60 2dc0 7e58 35c0 1137 99be 3cd5 13c0
00000240: 4b37 d8bf 3b43 c6bf f592 a9bf fe8f d7bf
00000250: d8f9 aebf ab75 e8bf 0678 05be fc71 edbd
00000260: a673 0abe 5cde a1be 1051 0f3d ca1f 89be
00000270: 8510 acbe 5224 b3be 7471 883e adc5 c2be
00000280: 8017 c6bd 018d 85be d4ed 27bf 001c 903d
00000290: a299 6bbf 96f1 05bf cfe2 083e 638a be3e
000002a0: 937b 2ebd d19b f7be 2ec1 04bf 46fd 7fbe
000002b0: 5534 1bbf 27fd 7ebc 7b03 6dbe a1b5 7a3b
000002c0: 3630 e0be 8f8f 203d 9592 00bf 54ed 21bf
000002d0: 68db cabe 4f6d 24bf 40db 8fbf 04ea 80bf
000002e0: cada a2be b381 5b3d bb78 19bf d2b5 23bf
000002f0: bf06 8bbf 0975 94bf 78b2 71bf 5438 1abf
00000300: 7f2f 2dbf 4904 b8be b314 e5be b42c 54bf
00000310: e470 93be 96dc 55be aba9 3c40 cf37 1741
00000320: ed5f 8040 9c75 ef3f ba3c 5941 5130 43c1
00000330: 7c4d 05bd 9fe3 26bf e1f2 c2be 6554 7739
00000340: 1c56 b3be bf31 813d 6e0a 11be 02d5 523d
00000350: 3ac4 4abe 3700 29bf b258 bfbe 6cb0 c6be
00000360: 0716 84be 0704 9e3e eae9 68bf e57d 19bf
00000370: 9cbe c33e b145 753e 4bbf 9fbf 21e5 a5bf
00000380: 84e6 c3bf 6109 a4bf fb02 11bf 6723 85bf
00000390: 5954 56be 9baf 93be 196e 65bf 08e3 87bf
000003a0: ff13 bfbc 42c9 6fbf 37db bbbf f1cd 8abf
000003b0: 9f4c d1bf c8cc d4bf cb7f d6bf 41c6 88bf
000003c0: a167 00c0 6132 a2c1 49ee ddbf 3a1c 00c0
000003d0: 88b9 a4c1 14b4 193e 7b42 1bbf 0110 15bf
000003e0: ad87 20be 781f a2bf 8a02 2ebf 5439 3bbf
000003f0: 389f cac0 dc74 08c2 dedf 01c0 a980 d2c0

bias f4 [64]
7.179793 -3.134773 -1.0612894 -0.35834748 -1.4644432 -1.1358956 6.6470623 -0.14744408
-0.12169259 -0.35990477 -0.89064854 -1.8699726 0.039870016 -0.32539535 -0.21757664 -0.39232498
-1.1150937 -0.98511213 -1.057265 -1.9573106 -0.32258588 -0.24315126 -0.7493133 -2.9869096
-1.7807088 -0.24414253 -0.085704565 -0.87174237 -0.19975787 -0.19100654 -1.0902264 -1.0630811
-0.26230985 0.82521665 -0.4978346 -0.16365795 -0.7668942 -1.5158129 -1.577698 -1.7850507
-1.0435865 -0.76922476 -4.4631715 -0.27560803 -0.026620192 -0.17203109 -0.067536466 0.100037694
-1.1592631 -2.7729871 -0.7285286 -1.1400632 -0.9958146 -2.052283 -2.5313442 -0.5900587
-0.769491 -0.08273111 -1.0643433 -0.25972897 0.03657624 -0.17770363 -1.2576169 -0.2421914
00000000: ddc0 e540 1fa0 48c0 55d8 87bf 5279 b7be
00000010: e072 bbbf 0765 91bf bcb4 d440 95fb 16be
00000020: f739 f9bd 7045 b8be 8b01 64bf 435b efbf
00000030: be4e 233d 389a a6be 69cc 5ebe d2de c8be
00000040: 64bb 8ebf 4f30 7cbf 7654 87bf 2789 fabf
00000050: fa29 a5be a5fc 78be ffd2 3fbf 8729 3fc0
00000060: 44ee e3bf 8000 7abe e085 afbd 822a 5fbf
00000070: 548d 4cbe 3897 43be 8a8c 8bbf 0b13 88bf
00000080: 7a4d 86be 6641 533f 2de4 febe f395 27be
00000090: 2e53 44bf 2806 c2bf 02f2 c9bf 8b7c e4bf
000000a0: 3e94 85bf eaeb 44bf 4dd2 8ec0 7f1c 8dbe
000000b0: 9712 dabc eb28 30be 8f50 8abd 90e0 cc3d
000000c0: bc62 94bf 9f78 31c0 da80 3abf 97ed 91bf
000000d0: b5ed 7ebf 9b58 03c0 8b01 22c0 160e 17bf
000000e0: 5dfd 44bf ee6e a9bd 673c 88bf 32fb 84be
000000f0: f8d0 153d f1f7 35be 97f9 a0bf 0601 78be

weight f4 [64, 64]
-8.6391735 -2.4272077 0.66903067 0.11903621 -0.07282061 0.8821294 -7.3428764 -0.10716142
-0.2492183 0.34720632 3.2976315 -1.1520834 -0.20389305 -0.03401859 -0.0053617805 -0.21400982
-0.086413115 -0.97878295 -0.8337499 -1.3683215 -0.21656595 -0.21393391 -0.18314007 3.4236066
1.4097365 0.05537598 -0.0069469064 -0.1899175 0.14353502 0.3674498 -0.0733355 -0.8913074
-0.32938078 -3.2968216 0.19789004 -0.34359413 -0.2731804 0.9928698 -0.048916247 -1.3315737
3.313688 -0.2779982 16.807903 0.3083781 0.2745161 -0.108164266 -0.16791418 -0.2583015
1.5926411 -0.27380416 0.77198815 0.77658105 3.9080868 -1.2765557 0.025219137 -0.20054157
-0.23424071 -0.15137464 -0.8783108 -0.1290876 0.3314722 -0.289935 -0.06598527 0.18356663
-8.599246 -2.271145 0.61886364 -0.07528311 -0.103961214 0.7061125 -7.276332 -0.2450394
-0.3375607 0.3390742 3.491785 -1.1552271 -0.13357279 0.07954098 0.06431034 -0.34278297
-0.2796599 -1.0461842 -0.8071786 -1.5432729 -0.26296204 -0.14957808 -0.32741475 3.2939026
1.577883 -0.105417475 -0.074219465 -0.17421834 0.21108668 0.26990625 -0.32325137 -0.890884
-0.27339652 -3.3069751 0.29435405 -0.16510019 -0.21632397 1.0404348 -0.01577836 -1.1622434
3.6203854 -0.29927576 16.923452 0.36505115 0.26573005 0.05963835 -0.20201631 -0.08134359
1.4544972 -0.30175114 0.8692021 0.8886307 3.873833 -1.2661756 0.29873765 -0.2358418
-0.13377169 -0.31637454 -0.9946711 -0.151025 0.28632468 -0.33661926 -0.13272436 0.20491424
-8.654086 -2.4058244 0.6176547 -0.017737508 -0.16249613 0.87898093 -7.3124113 -0.3238628
-0.11889725 0.210022 3.4113178 -1.0780815 -0.1636379 0.09047395 -0.10115394 -0.20100722
-0.29247406 -0.9198439 -0.81102955 -1.4399419 -0.28473625 -0.1965543 -0.21513854 3.2497141
1.4830834 -0.029460728 0.062645614 -0.29075092 0.266429 0.41785425 -0.3251057 -0.8910689
-0.106490545 -3.3137014 -0.26019177 -0.16687526 -0.2536162 0.956212 -0.06150737 -1.395702
3.4196095 -0.19915026 16.927313 0.40429366 -0.35878032 -0.07561639 -0.22601603 -0.2757526
1.546674 -0.4279869 0.8590661 0.9964179 3.918575 -1.2100141 0.31263456 -0.21107338
-0.18342201 -0.10629702 -0.9770302 -0.2573129 0.31396902 -0.13904382 -0.13283841 0.29216182
-7.298315 -0.9059365 0.5922803 -0.03794025 0.03662752 0.7133286 -7.6313605 -0.44547853
-0.28905112 -0.40536886 3.65686 -1.047312 -0.31682438 -0.06240666 -0.06475735 -0.3747389
-0.087887846 -1.0726978 -0.92409515 -1.3947397 -0.39054725 -0.5348152 -0.06989532 3.4293509
1.3522162 0.053155407 0.099806964 -0.013632088 -0.38312772 -0.4059151 -0.09836724 -0.71785694
-0.4437414 -3.315724 -0.40603897 -0.3595111 -0.10350554 1.0299528 0.43226805 -1.1383699
3.4420907 -0.26660335 16.961975 -0.29407266 0.39194307 -0.044047862 -0.23848139 -0.19346085
1.2815729 -0.77334833 0.8356005 0.97329885 3.9520957 1.2344478 -0.5295959 0.24358101
0.3503229 -0.34741202 -1.0389853 -0.39190346 -0.24377663 -0.38510725 0.13590986 -0.22853693
00000000: 0e3a 0ac1 5f57 1bc0 9845 2b3f 42c9 f33d
00000010: f922 95bd 3bd3 613f d8f8 eac0 7277 dbbd
00000020: 1533 7fbe 07c5 b13e 650c 5340 7877 93bf
00000030: 57c9 50be 1457 0bbd e0b1 afbb 6425 5bbe
00000040: 5cf9 b0bd 8591 7abf a270 55bf 2925 afbf
00000050: 77c3 5dbe 7e11 5bbe 1289 3bbe 5f1c 5b40
00000060: 3f72 b43f ecd1 623d e0a2 e3bb bc79 42be
00000070: d8fa 123e 6122 bc3e ec30 96bd b92c 64bf
00000080: 99a4 a8be 20ff 52c0 b0a3 4a3e 92eb afbe
00000090: 4dde 8bbe b72c 7e3f 675c 48bd 0271 aabf
000000a0: 7713 5440 c855 8ebe 9676 8641 bce3 9d3e
000000b0: 608d 8c3e 3a85 ddbd b2f1 2bbe 1840 84be
000000c0: aadb cb3f 0f30 8cbe 04a1 453f 04ce 463f
000000d0: 181e 7a40 2d66 a3bf 5d98 ce3c c55a 4dbe
000000e0: ccdc 6fbe f401 1bbe fad8 60bf 8a2f 04be
000000f0: b9b6 a93e 5c72 94be 4923 87bd e4f8 3b3e
00000100: 8396 09c1 715a 11c0 d96d 1e3f 082e 9abd
00000110: 9ee9 d4bd cac3 343f b6d7 e8c0 9ceb 7abe
00000120: c2d4 acbe 229b ad3e 6879 5f40 7bde 93bf
00000130: 4ec7 08be 62e6 a23d 24b5 833d 4081 afbe
00000140: 952f 8fbe 5de9 85bf 42a3 4ebf f789 c5bf
00000150: f6a2 86be ff2a 19be e8a2 a7be 4dcf 5240
00000160: 12f8 c93f 1ee5 d7bd 6000 98bd 4b66 32be
00000170: 1b27 583e 2731 8a3e 3481 a5be f910 64bf
00000180: a1fa 8bbe 7ba5 53c0 93b5 963e 0610 29be
00000190: 0884 5dbe f82c 853f 9f41 81bc 64c4 94bf
000001a0: 65b4 6740 ac3a 99be 3b63 8741 fce7 ba3e
000001b0: c50d 883e 5847 743d 5ddd 4ebe 7897 a6bd
000001c0: f72c ba3f 207f 9abe 0784 5e3f 4d7d 633f
000001d0: e1ec 7740 0b12 a2bf 24f4 983e 8380 71be
000001e0: 72fb 08be d8fb a1be c4a2 7ebf 4ca6 1abe
000001f0: 2699 923e 5c59 acbe e5e8 07be 0ad5 513e
00000200: 2377 0ac1 07f9 19c0 9e1e 1e3f 404e 91bc
00000210: 6365 26be e504 613f 46ff e9c0 58d1 a5be
00000220: 6780 f3bd 0210 573e 0853 5a40 93fe 89bf
00000230: b290 27be 684a b93d cc29 cfbd d6d4 4dbe
00000240: 29bf 95be e47a 6bbf a29f 4fbf 0450 b8bf
00000250: f3c8 91be 8845 49be 474d 5cbe 51fb 4f40
00000260: add5 bd3f a057 f1bc 584c 803d 4edd 94be
00000270: 6269 883e fef0 d53e 4174 a6be 171d 64bf
00000280: b717 dabd af13 54c0 db37 85be 59e1 2abe
00000290: fcd9 81be 4fca 743f 27ef 7bbd 5da6 b2bf
000002a0: e2da 5a40 0cee 4bbe 236b 8741 94ff ce3e
000002b0: 0eb2 b7be c4dc 9abd bf70 67be 722f 8dbe
000002c0: 6af9 c53f 1921 dbbe c2eb 5b3f 3e15 7f3f
000002d0: efc9 7a40 bee1 9abf a311 a03e 9f23 58be
000002e0: fbd2 3bbe 41b2 d9bd a71e 7abf 84be 83be
000002f0: 8cc0 a03e 8161 0ebe cb06 08be 3c96 953e
00000300: cc8b e9c0 74eb 67bf af9f 173f 3c67 1bbd
00000310: bd06 163d b49c 363f 1b34 f4c0 c315 e4be
00000320: 82fe 93be 828c cfbe ff09 6a40 520e 86bf
00000330: ce36 a2be 209e 7fbd 809f 84bd c7dd bfbe
00000340: 8bfe b3bd 294e 89bf 8091 6cbf d586 b2bf
00000350: cff5 c7be a6e9 08bf 4725 8fbd 7c7a 5b40
00000360: 6c15 ad3f 7cb9 593d 9867 cc3d 1f59 5fbc
00000370: 5129 c4be 1bd4 cfbe c374 c9bd 79c5 37bf
00000380: 1332 e3be d234 54c0 57e4 cfbe d711 b8be
00000390: b6fa d3bd 7ed5 833f 3d52 dd3e 1bb6 91bf
000003a0: 374b 5c40 3c80 88be 20b2 8741 b190 96be
000003b0: c3ac c83e 886b 34bd 7734 74be 9a1a 46be
000003c0: 950a a43f 28fa 45bf eae9 553f 1d2a 793f
000003d0: 23ef 7c40 6302 9e3f 9993 07bf 4d6d 793e
000003e0: 865d b33e fddf b1be 78fd 84bf 92a7 c8be
000003f0: 95a0 79be c72c c5be f42b 0b3e 9605 6abe

bias f4 [64]
-6.1472373 -6.272576 -6.053561 -6.8022513 6.447073 -3.4885614 -6.2868176 -6.625866
-6.056005 -6.5800967 -7.90355 -6.182662 -6.3805614 -6.985352 -6.388851 -6.7207384
-5.932101 -6.401838 -6.5500336 -7.474826 -11.625253 -6.9380107 -6.131613 -6.430801
-12.332106 -6.7362995 -6.1887116 -6.4449034 -2.2341583 -5.727169 -6.0419245 13.852823
-6.0849957 -6.5720797 -6.3636518 -4.7035513 -5.9691267 -6.146956 -6.4955983 -6.5135465
-6.57674 -6.0928974 -6.3585215 -5.8807993 -6.9561343 -6.653311 -6.5893993 -7.076244
-6.8077226 -6.828565 -5.757215 -6.806965 -6.656939 -5.3741617 -6.4908547 -6.5235624
-6.021799 11.062674 -6.4917164 -8.271557 -6.5306377 9.56851 -7.2090087 -5.4467382
00000000: 2bb6 c4c0 f1b8 c8c0 c6b6 c1c0 0bac d9c0
00000010: 6c4e ce40 9744 5fc0 9c2d c9c0 1807 d4c0
00000020: cbca c1c0 2790 d2c0 e2e9 fcc0 5ed8 c5c0
00000030: 8f2d ccc0 0188 dfc0 7871 ccc0 4a10 d7c0
00000040: c5d3 bdc0 dbdb ccc0 e099 d1c0 c631 efc0
00000050: 0901 3ac1 2f04 dec0 2c36 c4c0 1fc9 cdc0
00000060: 4e50 45c1 c48f d7c0 ed09 c6c0 a63c cec0
00000070: 73fc 0ec0 f844 b7c0 7257 c1c0 2aa5 5d41
00000080: 49b8 c2c0 7a4e d2c0 09a3 cbc0 7e83 96c0
00000090: 1603 bfc0 ddb3 c4c0 f1db cfc0 f96e d0c0
000000a0: a774 d2c0 04f9 c2c0 0279 cbc0 822f bcc0
000000b0: a798 dec0 ece7 d4c0 5cdc d2c0 9770 e2c0
000000c0: ddd8 d9c0 9b83 dac0 1b3b b8c0 a8d2 d9c0
000000d0: a505 d5c0 22f9 abc0 15b5 cfc0 06c1 d0c0
000000e0: 94b2 c0c0 b600 3141 24bc cfc0 4c58 04c1
000000f0: fcfa d0c0 9e18 1941 33b0 e6c0 ae4b aec0

weight f4 [64]
0.5643284 0.5234764 0.6549677 -0.10167212 11.636582 5.589733 0.42809013 0.067715116
-0.5063521 0.51460207 0.46807888 0.5130238 -0.32777554 3.8542402 -1.4197012 0.39805034
0.1465073 0.5001714 0.6087853 0.5820425 23.79309 0.056625586 0.11078606 0.55374277
6.324441 0.09100564 0.14868169 0.5228722 14.88878 1.8379683 0.52354807 -14.501079
0.33279312 -0.1653481 0.5268096 -0.3159311 24.371325 -0.65120935 0.37670308 -0.41946706
0.28975043 0.7660349 0.5468926 2.779688 -0.3665172 0.15308858 0.5288293 0.48380625
-0.5077952 -0.54125744 0.8859121 4.7142863 0.27609324 0.7816433 0.21671675 0.38458705
0.71505153 15.463018 0.47327867 -0.23296702 0.2986193 16.541807 -8.461045 2.944068
00000000: d377 103f 8d02 063f f7ab 273f 7939 d0bd
00000010: 712f 3a41 18df b240 a12e db3e 39ae 8a3d
00000020: 4ba0 01bf f6bc 033f 09a8 ef3e 8755 033f
00000030: 32d2 a7be dfab 7640 c5b8 b5bf 41cd cb3e
00000040: 0206 163e 3c0b 003f 5ad9 1b3f bd00 153f
00000050: 4058 be41 3bf0 673d cde3 e23d 16c2 0d3f
00000060: d261 ca40 2a61 ba3d 0340 183e f4da 053f
00000070: 7138 6e41 8c42 eb3f 3f07 063f 6b04 68c1
00000080: dc63 aa3e 0351 29be fedc 063f b9c1 a1be
00000090: 79f8 c241 a8b5 26bf 3adf c03e 63c4 d6be
000000a0: 2b5a 943e dd1a 443f 2701 0c3f 68e6 3140
000000b0: 24a8 bbbe 41c3 1c3e 5b61 073f 74b5 f73e
000000c0: defe 01bf d98f 0abf 23cb 623f 6fdb 9640
000000d0: 185c 8d3e c619 483f ffea 5d3e 98e8 c43e
000000e0: 9e0d 373f 8668 7741 9551 f23e e88e 6ebe
000000f0: a1e4 983e 9f55 8441 7160 07c1 9c6b 3c40
