model_2_PPO.pt (torch, 376729 bytes, 99 tensors)

weight f4 [64, 11]
00000000: 2671 77be b0a3 8cbe 90fd e13c 8e6f a1bd
00000010: 723f 8bbd e4d1 ac3d e31f 99be 18e0 d83d
00000020: 706b 3cbe d65d 3ebe 008b 59be 8398 4b3d
00000030: fadc 1b3e 398b 1e3e fe01 8b3e adf7 98be
00000040: 179c 83bd da70 833e 51d0 8dbe 222b 303e
00000050: 4472 26be a12c 1c3e b008 113e a85c 4ebe
00000060: ebb5 113e 7703 16be 2577 4ebd 45a8 493e
00000070: 9bf4 07bd 6d11 b3bd 4863 c43c 4c3c ef3d
00000080: 981b 98be f371 8dbe 6703 a3bd 2be2 babd
00000090: 90b8 c7bd d3a8 8fbe 24bb 8c3c 54e1 f93c
000000a0: 81ca 26be 4537 28be c1b4 f6bd 66cd 0f3e
000000b0: 455c 8f3d db9d 1abd 7abd 863b 4d5d d03d
000000c0: a08e 20be 1c18 7f3e 010c 733e 37e4 95be
000000d0: fb33 923e 9280 053e 2e70 673d 376e efbc
000000e0: 3228 6cbe fa14 f23d 6730 67be 1f3a 8a3e
000000f0: bffd 8ebd b3ef 153e 6931 353e f29b 803e
00000100: cc0e 2a3d 859c 253e 15cb 84be 734b 2b3e
00000110: cc34 b33d f8a6 aabd 71a7 5bbe 47d3 29be
00000120: bdb6 af3c cbed 933e b39f 6a3e 9086 3fbd
00000130: bd58 34be 7515 93be 780c cdbd a6bd 66be
00000140: 4e27 1f3e b25c 1cbe 9b77 90be 02fc 06be
00000150: 869f 27be cad7 923d 91cf d03d 85a5 983e
00000160: d1d9 8abe 8f3d 173e 1be3 633e ea93 f03d
00000170: fc21 82bd e8ae 973d b403 f13c 3a93 733e
00000180: dcf5 463e 33e2 1f3d 9dd9 1ebe 2780 92bd
00000190: c943 97bc d98d 88be f682 29be dbda 0b3e
000001a0: df8d b03d cd75 c13d 87bc 1cbe 1ba1 0e3b
000001b0: 2486 26bd 477b 52be 287e 433e 0617 243e
000001c0: ae64 18be 2344 4c3e 355b 90be 803d 033e
000001d0: 89a3 063e 9f3c b63d 51e7 1c3e fee5 e6bd
000001e0: 160a 253e 38fa 643e 58c9 2fbb 7fcb 33be
000001f0: fa96 9abe 2618 9c3d 771d 583e a0ab 6ebe
00000200: bf69 803e 804d 70be 4c16 8b3e 2d00 ec3c
00000210: ae57 103e ee2f fdbd c08c bfbd 509f 3c3d
00000220: 548f 3cbe 7acf 69be fe25 31be 188b 413d
00000230: 92f6 96be 1269 873e e8a2 413e a03e 513d
00000240: 4750 55bd d079 553e 5981 8abe bf38 17be
00000250: 7d29 8a3d 9f8f 93bc 4888 d43d 1c51 b03b
00000260: 9be1 153e fb20 05bd 1f02 4c3d 7377 db3d
00000270: 8854 843e 4390 35be 1caf 77be 26b0 64bc
00000280: f6d7 8cbe b1e1 49be 37cc d0bc 4bb6 8f3c
00000290: c85c 493d 45a0 88bc 8869 733e 3d04 8b3e
000002a0: bfb9 973e 3f6e 5f3d 3a24 2ebd c23e e5bd
000002b0: 1797 1dbe 2c3c 70be aa3e 913d d8fd 35be
000002c0: 4666 84be 0a07 e0bd 483c 353e 9067 83bd
000002d0: 7396 81be 6aa4 24be 9f98 77be 66a6 c8bd
000002e0: c07a 91bb 061f 81be 102f 523e 19f6 863e
000002f0: b328 2abe 7b99 c0bd 98b0 5abe 3917 16be
00000300: e307 883e c3d3 87be b08b 2b3d 76f8 82be
00000310: f995 d63d 156c 813e 7970 e83d 4883 27bc
00000320: 194e 8abd 93c3 433e d355 acbd 8aa2 9f3d
00000330: fb05 563e f27b 5abe 2b9f 28bd d9df 9dbe
00000340: aead 083e 3f71 b73d fa40 1cbe 9e44 a63d
00000350: 3ee9 6fbd cfd8 f6bd a523 713e af39 2b3e
00000360: 06a0 9d3d 662e 01bc 4c59 a33d 7dd7 0abe
00000370: 7ff7 89be ef86 7bbe e891 7ebe 2c7b 87bd
00000380: 0489 843e ea41 8cbd 0e3b 8abe fc0d 37be
00000390: 60dc 34bc 7604 7bbe d84a 4abd 7144 5bbe
000003a0: 81b6 7e3e 6383 933e 18e6 11be 8d53 513e
000003b0: a00b ce3d 6645 ee3d 44d5 95be d1cc ee3c
000003c0: d4e3 df3c f1af 89be ea04 39be a0af 623c
000003d0: 00c8 663b b0c9 613d 548e 3cbe f4ef 5c3e
000003e0: 1479 6b3e 2000 debc 9080 fc3d d176 78be
000003f0: 5e14 d1bd d899 7e3e a451 5b3e 4c0f e5bc
-0.24164256 -0.27468634 0.027586728 -0.078826055 -0.067992106 0.08438471 -0.2990714 0.105896175
-0.18400359 -0.18590483 -0.2124443 0.049705993 0.15221015 0.15482797 0.27149957 -0.29876462
-0.06426256 0.25672036 -0.27697995 0.17203954 -0.16254526 0.152514 0.1416347 -0.20152533
0.14229552 -0.14649759 -0.050406594 0.19693096 -0.03319226 -0.08743558 0.023973122 0.116814226
-0.29708552 -0.27626 -0.07959633 -0.09125169 -0.097519994 -0.2805849 0.01717908 0.030502953
-0.16288187 -0.16427334 -0.12046195 0.14043197 0.07000021 -0.0377482 0.004111943 0.10174046
-0.15679407 0.24911541 0.23735048 -0.29275677 0.28555283 0.13037327 0.056503467 -0.02922736
-0.23062208 0.11820407 -0.22577058 0.26997468 -0.06981992 0.14642219 0.1769463 0.25118977
0.041518018 0.16172989 -0.2593619 0.16728 0.087503046 -0.08332628 -0.21450593 -0.16584502
0.021449441 0.2889236 0.22912483 -0.04675919 -0.17611976 -0.28727308 -0.10012144 -0.22533283
0.15542337 -0.15269735 -0.28216252 -0.13182071 -0.16369447 0.07170065 0.1019584 0.2981378
-0.27119306 0.14769576 0.22254603 0.11746962 -0.06354138 0.074064076 0.029420711 0.23786631
0.19429725 0.03903408 -0.155127 -0.07153349 -0.01846494 -0.2667072 -0.16553864 0.13657705
0.0862081 0.09446297 -0.15306292 0.0021763507 -0.04065527 -0.20554839 0.19091094 0.16024408
-0.14882156 0.19947867 -0.28194585 0.12816429 0.13148321 0.08898281 0.15322615 -0.11274336
0.16117129 0.22361076 -0.002682289 -0.17558096 -0.3019331 0.076217934 0.2110499 -0.23307657
0.25080678 -0.23467064 0.2716545 0.028808678 0.14095947 -0.123626575 -0.09353018 0.04605037
-0.1841405 -0.22833052 -0.17299649 0.04725179 -0.29484993 0.2644735 0.189098 0.051085114
-0.05207851 0.20847249 -0.2705181 -0.1476774 0.067461945 -0.01801282 0.10377556 0.0053807627
0.14636843 -0.032502156 0.04980671 0.107161425 0.25845742 -0.17730813 -0.24187893 -0.013958013
-0.27508515 -0.19715 -0.025488002 0.017542979 0.04916075 -0.016677985 0.23770726 0.2715167
0.296339 0.0545485 -0.042515017 -0.11193611 -0.15389667 -0.23460454 0.0709203 -0.17772615
-0.25859278 -0.109388426 0.17698777 -0.06416237 -0.25310096 -0.16078344 -0.24179314 -0.09797363
-0.004439682 -0.25218982 0.20525765 0.26359633 -0.16617088 -0.09404274 -0.21356428 -0.14657296
0.26568517 -0.2652875 0.041881263 -0.25580186 0.10477824 0.25277773 0.113495775 -0.010224171
-0.06753177 0.19117574 -0.08414807 0.07794674 0.20900719 -0.21336344 -0.04116742 -0.30834845
0.13347504 0.08957147 -0.15259162 0.081185564 -0.058572046 -0.12053072 0.23548754 0.16721223
0.07696538 -0.007884597 0.079760164 -0.13558765 -0.26946637 -0.24563192 -0.24860346 -0.0661529
0.25885785 -0.068485096 -0.2699818 -0.17876428 -0.01103887 -0.2451342 -0.049387783 -0.21412827
0.24874307 0.28811178 -0.1424793 0.20442028 0.10060811 0.116343305 -0.2926427 0.029150398
0.027330317 -0.26892045 -0.18068281 0.013835818 0.0035214424 0.055123985 -0.18413669 0.2157591
0.22995406 -0.027099669 0.12329209 -0.24264075 -0.10208963 0.24863374 0.21417862 -0.027961396

bias f4 [64]
00000000: ca06 96be 7f1d 323e 0ba3 d8bd 9b31 413e
00000010: ce53 84bd b4b1 873e c044 eabd e090 8c3e
00000020: 2e27 f73d 13f6 783e 7e05 793e 238f bcbc
00000030: a1fc 94be b913 973e 6dc9 583e 53ba 7dbe
00000040: 90df c4bd aaec 70be 8c46 773d 9d2e 91be
00000050: a84b 563d f6d3 a4bd 90b6 72be dcd9 663e
00000060: e274 30be c8b1 413d f280 9e3d 9fcb cebd
00000070: 450d 1dbe 1486 88bc a3bd 8bbe 19e0 923e
00000080: 0509 323e a8c0 0fbd 75e9 8b3e c33f 473e
00000090: 2f4e 96bb e2eb 3e3e 25f3 233d 68a0 84be
000000a0: 700a 45be 16be f7bd e389 79be 1606 4b3e
000000b0: 074a 95be 1667 643e 95b7 fbbc e32b fabd
000000c0: 50da ca3d c8c8 e1bd 9239 10be a1dc f13d
000000d0: 1e83 833e 0930 313e 9a6a 85bd f71d 873c
000000e0: 0b12 8ebd a2fd 63be 8549 773e d11d d3bd
000000f0: fb01 b53c 6814 2abe 35cc 843e 3802 cf3d
-0.29302055 0.17394064 -0.10577973 0.18866579 -0.06461297 0.26502764 -0.11438894 0.2745428
0.1206802 0.2431262 0.24318501 -0.023017472 -0.2909899 0.29507235 0.21170588 -0.24778108
-0.09612954 -0.2352778 0.060370013 -0.28355876 0.052318245 -0.08048241 -0.23702455 0.22544044
-0.17232087 0.047288686 0.07739438 -0.100974314 -0.15337093 -0.016665496 -0.2729312 0.28686598
0.17386253 -0.03509584 0.2732655 0.19457917 -0.004586957 0.1864467 0.040026803 -0.2590363
-0.19242263 -0.12096803 -0.24369006 0.1982654 -0.2915804 0.22304949 -0.030727187 -0.12215402
0.09904921 -0.11024624 -0.14084461 0.1180966 0.25685972 0.1730348 -0.06514473 0.01649378
-0.06937035 -0.22264722 0.24149139 -0.103084214 0.02209567 -0.16609347 0.25937048 0.10107845

weight f4 [64, 64]
00000000: d0ec 6b3d 71af 94bc 6cd8 b6bd d1d9 9abd
00000010: 77c9 213d c758 533c 20ce fe3d 58f3 12bd
00000020: 955e a83d ffda 823d 361d ac3b 25ea 93bd
00000030: e885 b6bc 3447 d73d 698a ae3c acfc 783d
00000040: 1035 573d f08d c2bc f7d4 b23d 82f7 91bd
00000050: 4c9c 5cbd 05ff 173d 7eb4 87bd e649 c73d
00000060: e271 73bd 21b3 2fbd 476b 0ebd 3599 1ebd
00000070: 6bbf 5a3d b2d3 bebd 9dc4 dabd f3d5 4d3d
00000080: 11c7 dfbd 88d0 bdbc 6261 923d add9 af3d
00000090: d41e e93d f44b 9f3b ab9a f8bd 7076 193d
000000a0: ef34 2e3d 55ea 8f3c d2c2 b6bd ae64 9bbd
000000b0: 0fe9 cb3d 5705 663c 270a 633d 791d 613d
000000c0: e86f 933d 403c 37bc b653 0d3d a7f3 7a3d
000000d0: 8d63 62bd c509 bcbc 77b5 b2bd c6ad c33d
000000e0: ff11 c83d a197 943d 9a03 d53d 834d 52bd
000000f0: 7d69 bc3d 20d3 e8bb 2ef0 4fbd c457 cb3c
00000100: 962a c53d d23c 3d3d 478b c1bd e418 e73d
00000110: ecad fa3d 35db 55bd 7187 1f3c c51f 673d
00000120: 4ebe 563c 1dd9 413d 64ad c2bd fbb3 af3d
00000130: 244f 0f3d e249 4bbd 845f 8fbd 9a8b a63d
00000140: 7e0f 963d 56ce 25bd b457 5ebd 536c d5bd
00000150: 6c49 f83d b607 073e d818 ea3c 40b0 2a3d
00000160: a9ae 043d 68f2 a6bc e078 e1bc 2b5b 013d
00000170: 0bcb fe3b 2f3d e93d 3c30 afbd ccb5 0e3c
00000180: ec25 63bc 307d 95bc 2ccb bf3d a062 bf3d
00000190: 6279 953c 4e80 ddbc 65f1 11be e478 f23d
000001a0: 5dfc e33c d588 9a3d e3a7 b5bc d03a 87bd
000001b0: 8828 a7bd 7cf7 983d 83ff 963d 3fde 86bb
000001c0: d4a0 b03d 103e 173d 4dc8 cfbd 823c 543d
000001d0: fc97 1c3d 215b d33b bb9e e1bd e73c 55bd
000001e0: c643 abb9 0378 62bd 0919 9f3d b635 e13d
000001f0: 4c51 cfbd a040 9bbd 1a3c 973c aaad bcbd
00000200: 402d 843d 394b 5b3d 6e07 a5bd dbde dc3d
00000210: 9094 af3d 6d2c 07bd b711 a4bc ee6c b23c
00000220: 6da5 073d 9c98 76bd efa0 afbb 9c36 e4bd
00000230: ecb3 cc3d b1b0 143d 9df2 b73d 8869 86bd
00000240: a673 f1bd 7c46 bbbd 8790 f93d 1f4f 9e3c
00000250: e09b 1cbc 6f85 a4bc 0027 3abc 6bd6 7b3b
00000260: 105e b9bb 1ea7 3e3b 095e e7bd 8114 263d
00000270: 378d 8c3c 8ba9 a1bd 945e 383c 0f15 a1bd
00000280: 84e7 7d3b 104b 763c 326c 3fbd daf3 1b3d
00000290: 6a9b 4e3d 3642 38bd bb3d 99bd 1837 f1bd
000002a0: e937 fbbd 2ab6 2e3d c89f a1bd 05aa 98bd
000002b0: 1a10 5bbd 9aaf 6a3d e116 83bc d749 9dbd
000002c0: d4ef 2a3c d005 fd3d bfd9 9cbd 72d5 dbbd
000002d0: 015f 033c 2172 793d ed92 f2bc 8554 823d
000002e0: 3a84 e0bd b6b0 82bd 2f1a c63d d588 d93d
000002f0: 70aa 2f3d 6626 dabd 981f d03a f711 7bbd
00000300: 5cbd b53d 9510 8cbd 7f02 91bc ae66 de3d
00000310: f92a a8bd af13 643d e1d8 33bd eeb1 153d
00000320: 09db 96bd 7ac2 e0bd 3906 adbc 2621 333d
00000330: 8413 e43d 64f1 d7bd b22d d7bc 5ec3 cfbd
00000340: 804a fd3b 79e5 dfbc 4c77 8e3d 1f67 83bb
00000350: 50b5 08bd 6174 cbbd 1478 04bd 0c3c 4cbd
00000360: f88b 8dbd abbc 013e c43c 3dbd 322e acbc
00000370: 2088 8d3d 0bd5 8dbc 7d12 973d ea5d f9bd
00000380: c8e8 d7bd f46a 4bbd 813a 0dbd 5584 12bd
00000390: 81ee 25bd a06f e13c ba62 c1bd 5c65 38bd
000003a0: 0532 a93d 1791 e63d c845 64bd 625a 65bd
000003b0: 179e 3c3d dd11 95bd 64ad afbd 4a54 823d
000003c0: b6dd a5bd 7ef3 9e3d 3f32 cfbd 56e9 523d
000003d0: 0042 d9bd 49b2 acbd 784e ae3c b63b 53b9
000003e0: 82b0 573c 3f5e dfbd a83a 973d f112 233c
000003f0: f78c e53c 9c47 503d 4699 49bd d5c4 a3bc
0.05759889 -0.018150063 -0.08927998 -0.075610764 0.039498772 0.012899584 0.12441659 -0.035876602
0.08221165 0.063894264 0.0052525057 -0.07222394 -0.022280648 0.10511628 0.021306233 0.06078784
0.05254084 -0.023749322 0.08732026 -0.071272865 -0.053859994 0.03710844 -0.06626223 0.09730892
-0.05943478 -0.04289544 -0.034770276 -0.03872033 0.053405207 -0.093177214 -0.10682032 0.050252866
-0.10926641 -0.023170725 0.071474805 0.0858644 0.11382833 0.0048613492 -0.121388756 0.037466466
0.04253095 0.017567793 -0.08923878 -0.075875625 0.09956562 0.014039359 0.055429604 0.054959748
0.07199079 -0.011183798 0.03450366 0.06126752 -0.05527072 -0.022953877 -0.08726018 0.09554629
0.097690575 0.072554834 0.104010776 -0.051343452 0.09199808 -0.007105246 -0.050766163 0.024822123
0.09627263 0.04620058 -0.09450393 0.112840444 0.12240204 -0.052211005 0.009736882 0.056426782
0.013106896 0.047326196 -0.09505728 0.085792504 0.034987584 -0.049631007 -0.0700064 0.08132096
0.07327174 -0.04047998 -0.05428286 -0.10421052 0.12123379 0.13186535 0.0285763 0.04167199
0.03239313 -0.02037926 -0.027523458 0.031581085 0.0077756695 0.11388623 -0.08554122 0.008710336
-0.013864022 -0.01824817 0.09364924 0.09344983 0.018246356 -0.02703872 -0.14252241 0.11839464
0.027830297 0.0754563 -0.022174781 -0.066030145 -0.081620276 0.07469079 0.07372954 -0.0041158493
0.086244255 0.03692442 -0.10145626 0.051815517 0.03823088 0.0064500724 -0.110166036 -0.052060034
-0.00032666157 -0.055290233 0.07768447 0.10996573 -0.10122928 -0.075806856 0.018461276 -0.09212811
0.06453943 0.053538535 -0.08058058 0.10784694 0.08573258 -0.033001352 -0.020027978 0.021780457
0.033116747 -0.060204133 -0.005359761 -0.111432284 0.09995255 0.03630132 0.08981822 -0.06563097
-0.11789636 -0.09144303 0.121857695 0.019324837 -0.009558648 -0.020083157 -0.011361837 0.0038427364
-0.005656965 0.0029091309 -0.11297233 0.040546898 0.01715718 -0.07893666 0.011253018 -0.07865345
0.003874273 0.015032545 -0.046734042 0.03807435 0.050441183 -0.04498502 -0.07482477 -0.117780864
-0.122665234 0.042654194 -0.07891804 -0.07454304 -0.053482153 0.057296373 -0.01600212 -0.076800995
0.010433156 0.12354624 -0.07658719 -0.10734071 0.008018256 0.060899857 -0.029611075 0.06363777
-0.1096272 -0.06381361 0.09672963 0.10621802 0.04288715 -0.10651855 0.0015878556 -0.06129643
0.08874008 -0.068391 -0.017701386 0.10859428 -0.082113214 0.055682834 -0.043908004 0.03654664
-0.073659964 -0.109745935 -0.021121131 0.043732785 0.11136535 -0.105440885 -0.026266906 -0.10144685
0.0077298284 -0.0273311 0.06956348 -0.0040100957 -0.033376038 -0.09934307 -0.032341078 -0.049861953
-0.069114625 0.12669627 -0.04620053 -0.021018121 0.069107294 -0.0173135 0.07376573 -0.12176116
-0.105424464 -0.049662545 -0.03447962 -0.035770733 -0.04051066 0.027519047 -0.09442659 -0.04501854
0.082614936 0.112581424 -0.05573061 -0.0559944 0.046049204 -0.07278798 -0.085779935 0.06363733
-0.08098929 0.07761286 -0.101170056 0.051492058 -0.106082916 -0.08432443 0.021277651 -0.00020144772
0.013164641 -0.10906648 0.07384235 0.009953246 0.028021319 0.050849542 -0.04921844 -0.019991318

bias f4 [64]
00000000: 5a44 69bd 90f1 aabc 0cb9 aa3d ac21 8c3b
00000010: 986b c1bd 7f5f 1cbb f6af 1fbc 4f1a 9abd
00000020: 8f70 efbd b961 8fbd 4568 9f3c a36c 053c
00000030: 9411 d63c 9cc9 a7bd 1b1a b83d b69a 81bd
00000040: 7296 3bbd 1b79 a93d cfbe c4bd b346 8fbd
00000050: c4ed 863c 8d26 773d aeac d5bd bcd1 553d
00000060: d058 d4bc 6872 39bd 11ac 7c3b 0f0b 833d
00000070: 325e f5bd 07de ef3b 8bc2 a83d 2e56 e13d
00000080: b125 393d fb1f b63d d81c 1d3d d814 173c
00000090: a782 60bc 7926 df3c 4aad cabb 1cbe 5cbd
000000a0: 5e3b 333d de5d 5fbd ff6c 9e3b 5102 c83d
000000b0: fe43 c1bd 9acc 413d 2566 61bd c640 6dbc
000000c0: 536d bd3d 05da ec3d ac3e 7fbd 348b 0abc
000000d0: 1e08 f7bd e53f 8e3d 2b76 fbbd 2250 3dbd
000000e0: 91ed 03bc 1a4c 3a3d 154a 84bd f4f7 c73a
000000f0: 9f14 9bbd 0882 cb3d c42d e93d 88bf 99bd
-0.05694995 -0.02086714 0.08336076 0.004276475 -0.0944435 -0.002386063 -0.009746542 -0.07524549
-0.11691391 -0.07001061 0.0194589 0.008143577 0.026131429 -0.08192751 0.08989354 -0.06328337
-0.045797773 0.08275052 -0.09606706 -0.06995907 0.016470797 0.0603395 -0.10433327 0.05220197
-0.025921255 -0.045275122 0.0038554708 0.06398594 -0.11980857 0.007320169 0.08240231 0.110027656
0.04520196 0.088928185 0.038357586 0.009221278 -0.013703025 0.027240025 -0.0061852084 -0.05389224
0.04375779 -0.054532878 0.0048347707 0.09766067 -0.094367966 0.047314264 -0.055029053 -0.014480775
0.092493676 0.115650214 -0.062315628 -0.00845604 -0.12062095 0.06945781 -0.12278398 -0.046219
-0.008052246 0.045482732 -0.064594425 0.0015256391 -0.075722925 0.09936911 0.11385682 -0.07507235

weight f4 [64]
00000000: 7a51 803f 6223 823f 339d 7e3f 0000 803f
00000010: 3558 813f d3e9 7f3f 3972 813f 85ea 803f
00000020: 0000 803f 0000 803f 7197 803f 50d0 813f
00000030: 107f 803f 1587 7d3f 0e2d 803f 431c 823f
00000040: 1d73 823f c894 7f3f 101a 813f c538 7e3f
00000050: 2490 7d3f d087 7f3f b2cc 803f a5b4 803f
00000060: aa3a 833f d735 7f3f a8a3 803f f119 813f
00000070: d611 803f beb6 7f3f 1ef1 803f f36c 7f3f
00000080: 4ec4 823f 73f2 7d3f 1acb 7e3f 386c 7f3f
00000090: 4c46 823f 1be7 813f 7422 823f 92e1 7f3f
000000a0: a49c 813f a9a1 813f cc5f 813f c34e 813f
000000b0: e98f 7e3f 3aeb 7f3f bf01 803f fcab 823f
000000c0: 5f35 7f3f 31f7 7e3f 4f7f 803f 0000 803f
000000d0: b3b6 803f 842e 813f 4da4 803f 0000 803f
000000e0: 0000 803f ef30 813f 62b6 803f da25 7f3f
000000f0: 54ef 813f bf6e 813f bfa6 813f f07c 813f
1.0024865 1.0167048 0.99458617 1.0 1.0105044 0.9996616 1.0112983 1.007157
1.0 1.0 1.0046216 1.0141697 1.0038776 0.99034244 1.001375 1.0164875
1.019138 0.998364 1.0086079 0.99305373 0.99048066 0.9981661 1.0062468 1.0055128
1.0252278 0.9969153 1.0049944 1.0086042 1.0005443 0.9988822 1.0073583 0.9977562
1.0216157 0.99198073 0.9952866 0.99774504 1.0177703 1.0148653 1.0166764 0.9995357
1.0125928 1.012746 1.010736 1.0102161 0.9943834 0.999683 1.0000533 1.0208735
0.9969081 0.99595934 1.0038851 1.0 1.0055755 1.009232 1.0050141 1.0
1.0 1.0093058 1.0055659 0.9966713 1.0151162 1.0111922 1.0129012 1.0116253

bias f4 [64]
00000000: cdb8 0a3b 1e05 ad3b b751 eeba 0000 0000
00000010: 8669 b63a 4c0b 7bbb 0c9c 0d3b 31fb b6b9
00000020: 0000 0000 0000 0000 abd3 1a3b e7e7 95ba
00000030: 98e5 a33b 0440 03bc 0d72 723a fe7a a7ba
00000040: c979 803a 4369 a23a 5068 b83a b38c aabb
00000050: be71 b6bb 3a3b 113a 9782 513b 28fd c8ba
00000060: f28a 193c c4fa 63bb b62c ee3a 4414 1e3b
00000070: 537f 0abb 4fe2 b9ba e466 b5bb f551 93ba
00000080: 4f8b 7e3b 13c2 54bb 4173 f3bb 045d afbb
00000090: e58c c93b ca76 5dbb aef7 a63b 699c 38bb
000000a0: 8471 9f3b cf3c c1ba 891d 45bb aec7 92bb
000000b0: da85 6bbb 87f1 bf3a b6a7 33bc 37bb c23b
000000c0: 39f9 98bb 553e 58bb 1f1e 0d3a 0000 0000
000000d0: 52e6 463b 485f de3a 4494 7abb 0000 0000
000000e0: 0000 0000 678b 223c 65e7 813b 3b62 9ebb
000000f0: 1301 d138 a9ce 203b ef25 563a ed8a 213c
0.0021167279 0.005280151 -0.0018182312 0.0 0.0013916946 -0.0038306294 0.0021607904 -0.00034900897
0.0 0.0 0.00236247 -0.001143691 0.005001735 -0.008010868 0.0009248562 -0.0012777743
0.000980192 0.001239099 0.0014069173 -0.005204761 -0.0055677583 0.00055401365 0.0031968707 -0.0015334236
0.009371506 -0.003478692 0.0018171284 0.0024120966 -0.002113302 -0.0014181825 -0.005535947 -0.0011239635
0.0038840359 -0.003246431 -0.007429511 -0.0053516645 0.006150829 -0.0033792728 0.0050954437 -0.00281694
0.004865827 -0.0014742854 -0.0030077419 -0.00447937 -0.0035937936 0.0014644124 -0.010965278 0.005942728
-0.0046683815 -0.0032996137 0.00053832115 0.0 0.0030349684 0.0016965652 -0.0038235346 0.0
0.0 0.009920931 0.003964352 -0.0048334873 9.966097e-05 0.0024537242 0.00081691047 0.009859783

weight f4 [64, 64]
00000000: adfb ca3d 9cf6 c23d ae53 b2bd c813 ec3c
00000010: efc4 d13d 1b43 a43d 673c 8dbd b15c b8bd
00000020: 4002 f83b 4878 1cbd 6525 a3bc 3005 993d
00000030: adf5 bc3c 6e9e 04bd 679f b9bc fa5e dcbb
00000040: af7b 2a3d 8c6d b1bc cdad 943b 0195 343d
00000050: 783d 863d fb54 ad3d 511d 81bd 19f2 233d
00000060: 6495 f7bd 8ac4 acbd bb42 c53d 0da8 f7bc
00000070: 589b 65ba 91fb 92bc c178 2f3d a04c a8bd
00000080: 7894 a23d 91be 783c daeb 93bd daf6 163d
00000090: 4e85 74bd 8513 00be c70e c6bd 5def 09bc
000000a0: 5724 f93d 7f26 7fbc 27b8 a0bb 75d5 dfbc
000000b0: 0a39 c03d 7bdb acbc 673f e43d 5989 b13d
000000c0: 6faf 653d c4e7 793d c7af b83d 6646 f3bd
000000d0: 06d9 be3d 961a c73d b2ca b23d 7460 683d
000000e0: 1c51 43bd 3732 a4bd 15bb 8d3d 90ca e6bd
000000f0: 6473 9dbd 8037 533d b0ec d13b d564 3dbb
00000100: 2ff0 b23d 10c2 583d 9d4d 6b3d 2026 f1bd
00000110: 807e 50bc efda 5f3d fb79 e13d 9d1c ea3d
00000120: a874 a03c d0a6 07bd 6a73 d3bd 19d7 213d
00000130: 8b8e e23b 342d d2bd bc5b 393c 96f2 11bd
00000140: 372c c6bd bda8 bfbd 5e56 2a3c af0f 0bbc
00000150: 0ba9 92bc ba9a c6bd 1b80 f53c 2003 96bd
00000160: 3377 eb3d 7462 b73d 5685 1cbd 79f8 2bbd
00000170: cf8d dd3d 828d d9bd d878 ffbd 368c 833d
00000180: c33a a2bc f184 963d bc18 a53d 10a5 a4bd
00000190: 6116 033c d8d5 9c3d 2bf4 c13d 944d a3bd
000001a0: d167 00bd 47da 8fbc 1445 3eba b8a4 9bbb
000001b0: 8b15 9cbd 617f bcbd d412 47bd 4f0f 403d
000001c0: af9f 31bd 09f5 703d c1a4 1dbc 200f dbbc
000001d0: 8ee7 da3b f186 c1bd db13 dd3d f0ba 873d
000001e0: 5098 513d 3111 b9bd fda3 483d b163 3dbd
000001f0: f493 cebd cd4a 353d d359 d43d 858b 54bd
00000200: 3d32 85bd e341 063d d6bc d13d cc97 b73d
00000210: a007 ec3b 1cff da3c 3617 da3d 4f9d fb3c
00000220: 804b 1ebc d6a6 80bd 7739 ffbc 912e 13bd
00000230: 78e8 4ebd d093 a43c 3921 22bc 0798 83bd
00000240: e274 4fbc c6fb e7bd 1d92 02be 14d1 d13d
00000250: 27ae d53d 87ed cd3d 7977 8bbd 153f 7e3d
00000260: 63d4 15bd a036 a1bd 6720 6fbd 4884 54bd
00000270: 8181 653c 82b6 c73d c66d be3d 7e17 eabd
00000280: 5527 99bd a5a5 1a3d e446 b83c ec3a a03d
00000290: 84c1 01bd acde 053c 4459 95bd a5b3 cd3c
000002a0: df8f b63c 86c1 233d 98b0 b6bd 9a33 a03d
000002b0: ca57 fabc 55c6 a13d 6b5d f3bc fd48 fb3d
000002c0: 75c1 ef3d df83 473d 45f0 063e 4856 933d
000002d0: 7ce0 ce3d cde9 fb3b ebb7 873d dc63 42bd
000002e0: f4b6 e0bd 8223 57bc c046 ce3d 7425 b93c
000002f0: 8ff9 073e 9cc4 b8bd 1b1d da3d a5ef a63d
00000300: 64da 55bd 7592 c7bd 56e0 bb3d 684f 6e3d
00000310: 2b97 8b3b c95a d03d 668d 033e d245 e8bd
00000320: 86a0 ec3d fe2c b63d 78c6 d5bb def4 efbd
00000330: e693 e9bd 14a3 a53d bd0e 063e 698b 413d
00000340: c9e9 03bd 4ed6 663d 012e 4bbd 2c28 94bb
00000350: 0675 94bd 1f99 68bd ec34 5fbd 1982 303d
00000360: 0583 bf3c 3d0e d9bd 08c9 bdbd 1571 983d
00000370: 7829 7f3d c76f 75bc c703 c2bd 53e6 a73d
00000380: 0d4c aabc 4df9 dd3d 724d bb3d 1f6b e5bb
00000390: 20e4 17bd afbf 0d3d 7d53 613d 8bc6 e23c
000003a0: b813 81bd 7def 8e3d eb04 983b 456f 8a3d
000003b0: e16e a9bd aee5 03be dbed 81bd 38c5 fe3d
000003c0: 5148 d7bd 1580 003e b82e 19bd 08b0 763d
000003d0: 4076 6ebc d7e7 343d 0317 9f3d 00af a3ba
000003e0: 5e5d f63d 29bc ee3d 2b7d 01be 8527 28bd
000003f0: 3c05 b4bc f022 ccbd 89f0 113d 2bee 783d
0.099112846 0.09519693 -0.08707367 0.028818026 0.1024264 0.08020612 -0.068962865 -0.090020545
0.0075686276 -0.038200647 -0.019915292 0.074716926 0.023066366 -0.032377653 -0.022659017 -0.0067251893
0.04162186 -0.021658681 0.00453732 0.044087414 0.06554693 0.08463474 -0.0630442 0.040025804
-0.12089041 -0.08435924 0.096318685 -0.0302315 -0.0008758805 -0.017942222 0.04283977 -0.0821774
0.079384744 0.015182153 -0.072227195 0.03685651 -0.05969744 -0.12507446 -0.09670787 -0.008418885
0.121651344 -0.015573143 -0.004904765 -0.027323464 0.09385879 -0.02110075 0.111449055 0.08668775
0.05607551 0.061012045 0.09017902 -0.11878662 0.09318738 0.09721868 0.08730067 0.05673261
-0.047684774 -0.0801739 0.06920449 -0.112691045 -0.07688025 0.0515666 0.006406389 -0.0028899212
0.08737218 0.052919447 0.057447065 -0.1177485 -0.012725472 0.05465215 0.11009594 0.11431239
0.019586876 -0.03311807 -0.10324748 0.039511774 0.006913965 -0.10262528 0.011313375 -0.03563174
-0.09676402 -0.09358356 0.010396568 -0.008487626 -0.017902872 -0.096974805 0.029968312 -0.07324815
0.11497345 0.08954325 -0.038213097 -0.04198501 0.108180635 -0.106226936 -0.12474221 0.064232275
-0.01980341 0.07349575 0.08061358 -0.08039296 0.008000941 0.07657975 0.094703995 -0.07973781
-0.031349007 -0.017560137 -0.0007258218 -0.0047498606 -0.076212965 -0.09203983 -0.04860194 0.0468896
-0.043365177 0.058827434 -0.0096218 -0.02674061 0.0066804355 -0.09449566 0.10794803 0.066274524
0.051170647 -0.09036482 0.048984516 -0.04623765 -0.100868136 0.04426079 0.10368695 -0.05189087
-0.06503723 0.03277768 0.10241096 0.089645 0.0072030574 0.026732974 0.106489584 0.030714659
-0.009661555 -0.062818214 -0.031155331 -0.03593308 -0.05051467 0.020090014 -0.009895616 -0.06425481
-0.012662144 -0.11327319 -0.1275105 0.102449566 0.104336075 0.1005507 -0.06809897 0.06207188
-0.0365795 -0.07871747 -0.05838051 -0.051883966 0.014007927 0.097516075 0.09298281 -0.11430262
-0.07478205 0.037755627 0.02249474 0.078237385 -0.03167869 0.008170765 -0.07292417 0.025110075
0.0222854 0.03997948 -0.08920401 0.07822342 -0.03055944 0.07899157 -0.029707631 0.12269781
0.11706821 0.048709746 0.13177593 0.07194191 0.10101411 0.0076877833 0.066268764 -0.047458515
-0.109723955 -0.013131024 0.10072088 0.022600867 0.13278793 -0.09021875 0.10650083 0.08151177
-0.052210227 -0.09744731 0.09173648 0.058181196 0.004259964 0.10173566 0.12846908 -0.11341442
0.11554055 0.088953 -0.0065239035 -0.117166266 -0.114051625 0.08087745 0.1309156 0.047252093
-0.032205377 0.05635672 -0.04960442 -0.0045213904 -0.07248883 -0.056786653 -0.05449383 0.04309282
0.023377905 -0.10598419 -0.09266859 0.07443444 0.062295407 -0.014980263 -0.09473377 0.08198228
-0.020788217 0.10838566 0.09145631 -0.007001295 -0.03708279 0.03460663 0.05501126 0.027682563
-0.06302589 0.069792725 0.004639258 0.06759504 -0.082731016 -0.12880585 -0.063441955 0.1243996
-0.1051184 0.1254886 -0.03739807 0.06022647 -0.01455456 0.044166412 0.07768061 -0.0012488067
0.12029527 0.116569825 -0.12645404 -0.041053314 -0.021975152 -0.09967601 0.035629783 0.06077401

bias f4 [64]
00000000: 86b7 ddbc 85d3 24bc ce37 9cbd de2d a4bd
00000010: 17c6 d9ba d7f6 3a3d 4974 5cbd 74f4 d53d
00000020: a884 033e 18e3 2e3c 5f31 7ebd a3b5 d33c
00000030: 112f 2fbd e9b7 b1bd 31d3 dbbd ab3e 513c
00000040: fc59 653d 164d cf3d 317d cdbd ca01 5e3d
00000050: 9f58 82bd 32be f6bd 8d10 fe3d 3a22 28bd
00000060: 1f03 e1bd 37e0 4e3d 346c 443c 0b6a 1c3c
00000070: cd46 a4bd d826 8fbd a031 f2bc fe5f e83d
00000080: c33d 5f3d 49f7 39bd 717f a1bd 742c 3abd
00000090: 4be5 75bb 7725 9a3d 7eab 04bd f887 d23d
000000a0: 45e4 98bd 754e 98bd 6dc7 863d b612 8dbd
000000b0: 6c48 383d 5c03 bdbd 0ca6 823b 4762 15bd
000000c0: 0938 54bd 73c9 bb3d 80b9 913d c989 abbd
000000d0: 6821 ad3c 600b 81bd 5fed 7ebc 2fac e8bd
000000e0: d683 dcbd 828e 83bd bc5f f73c e9e4 b13c
000000f0: c512 b6bd 3cd5 ee3d 7432 16bd fd63 00be
-0.02706505 -0.010060196 -0.076278314 -0.08016561 -0.0016614822 0.04564556 -0.053821836 0.10447016
0.12843573 0.010674261 -0.062058803 0.025843447 -0.042769495 -0.08677656 -0.10733641 0.012771289
0.05599402 0.10122125 -0.10033644 0.054200925 -0.063645594 -0.120479956 0.124055006 -0.041048266
-0.109869234 0.050506797 0.011988688 0.009546767 -0.08021317 -0.06989831 -0.029564679 0.11346434
0.05450226 -0.045401845 -0.07885636 -0.04545255 -0.0037520702 0.07526677 -0.03239011 0.1027984
-0.07465414 -0.074368395 0.06581006 -0.068883345 0.044990942 -0.092291564 0.0039870795 -0.036470678
-0.05181125 0.09169283 0.071154594 -0.0837589 0.021134093 -0.06300998 -0.015559523 -0.113609664
-0.10767333 -0.064236656 0.030197017 0.021715598 -0.08890299 0.11661765 -0.03666921 -0.12538143

weight f4 [64]
00000000: 050c 803f 2cb3 813f 0c44 7f3f 3722 833f
00000010: 0000 803f b143 7f3f fb79 813f 7ada 7f3f
00000020: 67a8 803f 2687 813f d9e7 803f d55b 803f
00000030: 2d9d 803f a239 823f 0969 813f 15cb 7e3f
00000040: acaf 7f3f 5b88 823f 936b 823f 8343 7c3f
00000050: 0000 803f 3b5b 7e3f 1082 813f 825a 803f
00000060: eddb 7e3f 6f27 803f 117a 813f 380d 813f
00000070: 2a11 823f 0326 823f 8bd1 803f 1617 803f
00000080: fcaf 7f3f 1682 803f 8dc6 823f f587 7e3f
00000090: 42d9 7e3f 844e 7d3f 373d 803f aeac 7e3f
000000a0: 3564 7f3f 44e7 803f 2462 813f 62ad 813f
000000b0: 6e0e 7d3f 0000 803f a07f 833f 8c39 7f3f
000000c0: 4cd7 813f 94da 823f 75bf 7f3f 8ba2 813f
000000d0: 69e0 7d3f ae88 803f 1caa 803f a641 803f
000000e0: 5a58 803f 0cfa 803f 87e6 803f 10c5 7f3f
000000f0: 63ad 803f ed67 813f e0c3 843f 2a7d 7e3f
1.0003668 1.0132804 0.99713206 1.0244817 1.0 0.99712664 1.011535 0.99942744
1.0051392 1.0119369 1.0070754 1.0028025 1.0047966 1.0173838 1.0110179 0.9952863
0.9987743 1.0197862 1.0189079 0.98540515 1.0 0.99357957 1.0117817 1.0027621
0.9955433 1.0012034 1.0115377 1.0082159 1.0161488 1.016785 1.0063947 1.0007045
0.99877906 1.0039699 1.0216843 0.99426204 0.9955026 0.9894793 1.0018681 0.9948224
0.9976228 1.0070577 1.0108075 1.0131037 0.9885014 1.0 1.0273323 0.99697185
1.0143828 1.0222955 0.99901515 1.0127729 0.9917055 1.0041711 1.0051913 1.0020034
1.0026963 1.0076308 1.0070351 0.9991007 1.0052913 1.0109841 1.0372276 0.99409735

bias f4 [64]
00000000: 1392 0bbb c375 b3bb 4170 bdba 765c cb3b
00000010: 0000 0000 b7bf 11bc b801 ce3b 9d54 9dbb
00000020: ca17 bb3b ad13 e93b 0d38 46bb 8eb6 38ba
00000030: de09 6cba a11b d53b 4ea5 5dbb 57bd 96bb
00000040: 566b 41bb 570b e83b f8d7 2bbb 1bae 57bc
00000050: 0000 0000 be84 ddbb ac56 233b 64c8 b8bb
00000060: bef7 0e39 1fb3 d439 8f84 c83b d97d f6ba
00000070: 9893 3b3c 9ecd 393c 9b3f e538 71b0 86bb
00000080: 400b 06bc b66e 8bb9 05e1 723b dc6f 82ba
00000090: feb6 98bb 997a 10bc a80c 32ba 69d1 59bb
000000a0: 9bdb e8ba a203 933b 6363 87bb 48e0 71bb
000000b0: e60d 45bc 0000 0000 1f77 e03b ec14 5dbb
000000c0: b13f e0bb ba12 ea3b ba00 14bb 7a9c d13b
000000d0: 7151 00bc 6253 273b 80b2 ae39 6270 5eba
000000e0: 5333 e6b9 a550 853b bfac e7bb 11a4 973b
000000f0: 6ba4 6d3a 6fb0 6cba 2011 c83b 2a11 b4bb
-0.0021296784 -0.005476685 -0.001445301 0.0062060906 0.0 -0.008895806 0.006286826 -0.0048013465
0.005709623 0.0071129412 -0.0030245811 -0.0007046246 -0.0009004156 0.0065035378 -0.0033820453 -0.004600208
-0.002951344 0.00708143 -0.0026221257 -0.013164069 0.0 -0.006760209 0.0024923487 -0.005639123
0.00013634466 0.00040569247 0.006119318 -0.0018805816 0.011448763 0.011340527 0.000109314184 -0.004110389
-0.008181393 -0.00026594632 0.0037060392 -0.000995155 -0.0046604862 -0.008818292 -0.0006792047 -0.003323639
-0.0017765643 0.004486517 -0.004131721 -0.0036907364 -0.012027239 0.0 0.006850138 -0.0033734394
-0.00684353 0.0071433457 -0.002258344 0.0063968273 -0.007831917 0.0025531878 0.0003332086 -0.0008485374
-0.00043907258 0.0040684515 -0.0070701535 0.0046277125 0.00090653327 -0.0009028976 0.006105557 -0.00549521

weight f4 [64, 64]
00000000: bb70 cfbd 437a 4e3d 2fce bc3d d03d acbd
00000010: 5021 2fbd ec89 1d3d 1b57 d1bc cf97 edbd
00000020: ecbe 63bd 609f 37bd cfa2 0c3e e80b 8a3d
00000030: fcb2 eb3d 8fdd 91bc 0700 c63d dfcd ba3b
00000040: 8a11 06bd 0332 99bc 9d86 e93d eac9 893d
00000050: 8e73 e4bd cf09 f0bd d420 f63d 9653 64bd
00000060: a6c2 80bd 45a9 1f3d eb3c c7bd c4b5 9c3d
00000070: 5a0c 2b3c f8b9 32bd 27e8 843d 66f0 9dbd
00000080: a73c 4abd ffc2 f23d 2cf1 343c 6d64 45bd
00000090: 425b 3e3d 3f7e 27bd d167 e7bc a74a d0bc
000000a0: 6683 bb3c d24a b63c 2a64 9dbd 9333 083d
000000b0: d795 2bbd f254 c7bd 2c1c e03c 1d10 813c
000000c0: 18c6 9d3d 1f05 d8bd 9eb1 fc3c 6421 a9bd
000000d0: e772 9d3d 8a64 d13d bf86 693d 1ecf 013e
000000e0: eae7 853d dc92 cc3c b457 b0bd 8972 2abd
000000f0: b008 f13d 28a3 3abc f78e bbbd 8e8b 5a3d
00000100: 04fd 83bd 245f 11bc 799f 90bd 5003 ffbd
00000110: 6017 393c 4d83 903d 14f3 d03d 946e a03d
00000120: 7433 6e3c a4a5 bebd ea6f b7bd f6a5 6e3d
00000130: 82df 883c 407d c2bd 2704 ef3b bea8 b93d
00000140: 4dc1 8a3d 690d dcbd 9fe4 96bd 9f06 e13d
00000150: 98e4 6ebd 31ff 2dbd 0d88 e23b 4f43 203d
00000160: bb94 73bc d050 c3bd 81d5 b5bd 5b77 c1bc
00000170: d949 64bd 66cf edbd 5650 3c3d 6b09 ab3d
00000180: e002 67bd 1b35 f43c da64 b53d 3db0 d43d
00000190: 67ed c1bd f3ae ea3d 6384 a1bd b672 a8bd
000001a0: f2d0 d23d 1bde d3bb 2b63 0c3d 2128 a23d
000001b0: f599 98bd 327b d33d 2dab 413d 58ff b73d
000001c0: da83 7a3d 6d9e 983d 1fd7 7bbd a182 803c
000001d0: ed7f d2bd fee4 9bbc 22d5 f23d e9f7 e73d
000001e0: 73ac 9abd 2aa7 8cbd 2711 1fbd 5491 f13d
000001f0: 9aef 1abd c58b 28bd 4e63 c93d db2e d13c
00000200: f7dd a53d 363d a4bc 0021 623d a05b bd3d
00000210: e0df 5abc 691e eb3d f4b2 8fbc e056 ed3c
00000220: 8f87 4b3d 68bf 02be af3c 2fbd 5bfd 6f3d
00000230: bb1c a53d 1c8c f0bd 567d 67bc d6f1 8b3d
00000240: d54e 97bd 6da1 6ebd 8e1d 9b3d 5de1 1fbc
00000250: c250 ec3d 39b0 183d f851 883d 3cdb 593d
00000260: 34e9 c1bd fcd4 dfbd 6f2d dabd 02df 8c3d
00000270: d580 0c3d 5803 e6bb f6f0 66bd b3a3 183d
00000280: edf9 7bbc f6c6 4f3d 90d9 4b3c cd7d f23c
00000290: b511 83bd cded a2bd 3a3d 7e3d a085 dbbd
000002a0: 4d4d 9e3c 9ed3 553d e956 efbc 97ae bebd
000002b0: b949 bb3d 58be 90bd cf60 f1bd f12b 9039
000002c0: 580f 2d3d c9a8 e93d 59b8 e7bc cd81 adbc
000002d0: ba34 20bd 6939 8a3d f96f ecbd 52eb f73d
000002e0: dfd3 963c cb09 cbbd 0463 e13d c62b 353d
000002f0: 2406 923d 0d7f 22bd de53 e63d d3ff 083d
00000300: b83c f93d 9196 0cbe f25a d93d f1fc bcbd
00000310: f8e7 fabd 0a18 b2bc 844e efbc eaa6 7cbd
00000320: 6bfc b53d ba19 243d 5380 d3bd cae6 05bc
00000330: 74a3 863d c3f7 d9bd cce5 f2bd bb34 2a3d
00000340: 60a5 923d 59cf 943c 14ab f7bd f7a4 85bc
00000350: 6c26 953d ff98 a13d 16bb 17be 9791 bbbd
00000360: 103c a0bd 8147 82bd d475 dcbd dca3 8ebd
00000370: d833 8e3d 0a30 993d fff8 b53d df86 0d3d
00000380: 5373 dfbd 4c2a c3bc 9202 03be 12b1 ad3c
00000390: f21d b0bd b024 063d 3b70 afbd 36a6 e4bc
000003a0: a08a c0bd 79b1 97bc bf0a b8bd 56c4 40bd
000003b0: 3df7 01be 84a6 a1bd 9009 d43c 9010 083c
000003c0: 1832 71bd c5e0 993d c9b2 823c 74e7 3fbb
000003d0: 2ce1 073c 3036 d63d fac6 5abd 8db0 c1bb
000003e0: 3bc1 1a3d 4628 b0bd a2c7 dfbd 6d40 cf3d
000003f0: 2091 573d d67b d8bd 140b ed3d 73f0 c1bc
-0.101289235 0.050409567 0.09219014 -0.08410227 -0.04275638 0.03846161 -0.02555423 -0.11601221
-0.055602 -0.044829726 0.13733982 0.06740552 0.11508748 -0.017805843 0.09667974 0.0057008113
-0.03273157 -0.018700605 0.114026286 0.06727965 -0.11154853 -0.11720621 0.1201798 -0.055743776
-0.06287126 0.038979787 -0.09728416 0.076518565 0.010439957 -0.043634385 0.06489592 -0.07711868
-0.04937425 0.11853599 0.011043828 -0.048191477 0.04647375 -0.040891882 -0.028247746 -0.025426222
0.022889804 0.022252474 -0.076851204 0.03325231 -0.041890945 -0.09732999 0.027357183 0.015754754
0.07703799 -0.10547852 0.030846413 -0.08258322 0.076879315 0.102242544 0.05701327 0.12676665
0.06538375 0.024972372 -0.08610478 -0.041613135 0.11769235 -0.011391439 -0.09158128 0.053355746
-0.06444743 -0.008872781 -0.07061667 -0.12451804 0.011297077 0.07056294 0.102026135 0.07833591
0.014538635 -0.09308937 -0.08956893 0.05826374 0.01670814 -0.09496546 0.007294196 0.09065388
0.067751504 -0.10744745 -0.07367825 0.10987591 -0.058323473 -0.042479698 0.006913191 0.03912669
-0.014867003 -0.09536898 -0.08878613 -0.023616483 -0.05573449 -0.11611824 0.04597505 0.08351406
-0.056399226 0.029810479 0.088571265 0.10385177 -0.09469109 0.1145915 -0.07886579 -0.082250044
0.102937594 -0.006465686 0.03427426 0.0791781 -0.0745124 0.10326232 0.047282387 0.0898425
0.0611609 0.07452092 -0.061484452 0.015687289 -0.10278306 -0.01903009 0.11857058 0.11326582
-0.07552423 -0.068678215 -0.038834717 0.11795297 -0.037826158 -0.04114892 0.09833394 0.025535038
0.08098977 -0.020048719 0.055207253 0.09245992 -0.01335904 0.1148041 -0.017541386 0.02897209
0.049689826 -0.12768328 -0.04278248 0.058591228 0.080621205 -0.11745474 -0.0141290035 0.06833236
-0.07388083 -0.058259416 0.075739965 -0.009758321 0.11538841 0.037277434 0.06656259 0.053187594
-0.09468308 -0.109292954 -0.10653197 0.06878473 0.03430255 -0.0070194416 -0.056382142 0.03726549
-0.015379411 0.050726853 0.012442008 0.029601002 -0.06399862 -0.07955513 0.06207011 -0.10718846
0.01932397 0.052203767 -0.029216247 -0.09310644 0.09144921 -0.07067555 -0.11786043 0.0002749856
0.04225096 0.11409146 -0.028286146 -0.021180058 -0.039112784 0.06749231 -0.115447946 0.12105431
0.018411575 -0.09913977 0.11005214 0.0442312 0.071300775 -0.039671946 0.11246465 0.033447098
0.12169784 -0.13729312 0.106130496 -0.09227932 -0.12251276 -0.021739978 -0.029212244 -0.06168262
0.088860355 0.040063597 -0.1032721 -0.0081727 0.06574145 -0.1064296 -0.118602365 0.041554194
0.07160449 0.018165277 -0.120931774 -0.016314013 0.07282719 0.0789051 -0.14817461 -0.091586284
-0.07823956 -0.063612945 -0.107646614 -0.069648474 0.06943482 0.07479866 0.08885383 0.03455245
-0.10910668 -0.02382388 -0.12793949 0.021202598 -0.085994616 0.03274983 -0.08566328 -0.027911287
-0.094014406 -0.018517243 -0.08986425 -0.04706224 -0.1269197 -0.078930885 0.025883466 0.00830473
-0.058885664 0.075135745 0.015954392 -0.0029282244 0.008293431 0.10459554 -0.053412415 -0.005910939
0.037781935 -0.086014315 -0.10926749 0.1011971 0.052628636 -0.10570495 0.115743786 -0.023674225

bias f4 [64]
00000000: 38d6 66bd 8479 bbbd 2193 02bc ec05 0bbd
00000010: 7ee6 023c 4ea6 8a3a 5cb2 02be 76ef 47bd
00000020: 1e54 613d fe70 803d c4a9 63bd adfc c63d
00000030: d1d7 ebbc 6c40 7f3c 6117 b23d 0a5c 3abd
00000040: 9749 4fbd e355 bb3d 50a4 013e 9d93 99bd
00000050: 6c99 fc3d c6df 85bd fe85 63bc 5861 c9bd
00000060: 3b4b 6dbc cf25 e13c 3a87 0d3e e339 9abd
00000070: 5e69 6abd 7c86 ac3d fa63 d7bd cd17 8bbd
00000080: a9d5 b23b 93b5 acbd 0104 99bd a783 f0bd
00000090: 9931 6a3d 6e11 d0bd ad0d cf3c 117a 893c
000000a0: fd1d d2bd c5e4 523d 0bfb 903a e74b 943d
000000b0: d962 7a3d c499 3abd 5785 063e 38bc 503d
000000c0: 5baa 36bb e058 553d a986 bd3d 22bf cbbd
000000d0: e4f1 d639 2058 833d 96ff ea3c ab8d 95bd
000000e0: 85cd 3bbd d6ca b23b e784 b83d 983c cb3d
000000f0: ac6e dd3d fde5 f83d d08c d03c 0375 a73c
-0.05635664 -0.09154037 -0.007969649 -0.033941194 0.007989524 0.0010578127 -0.12763351 -0.048812352
0.05501186 0.062715515 -0.055581823 0.09716163 -0.028789433 0.015579324 0.086958654 -0.04549793
-0.05060729 0.09147241 0.12660336 -0.07498858 0.123339504 -0.06536822 -0.013886927 -0.0983302
-0.014483268 0.027483849 0.13821116 -0.07530572 -0.057229392 0.08424088 -0.10517116 -0.06791649
0.005457599 -0.0843307 -0.07471467 -0.11743861 0.057176206 -0.101595744 0.025275076 0.016781839
-0.10259626 0.051487703 0.0011061145 0.0724104 0.061129425 -0.0455568 0.13136803 0.05096075
-0.0027872536 0.05208671 0.092542 -0.09948565 0.00040997483 0.06413293 0.028686326 -0.07302412
-0.045850296 0.005456309 0.09009724 0.09923667 0.108121246 0.12153242 0.02545777 0.020441538

weight f4 [64]
00000000: 5c5e 823f 9300 813f ff89 823f 7697 823f
00000010: 6b12 833f 418b 853f c4ee 823f 02f8 813f
00000020: f93b 8b3f e2a4 803f 3fd1 833f 9ebe 833f
00000030: 9894 863f ada8 843f 3287 873f 5377 813f
00000040: 7726 833f f661 833f 6700 7c3f 500c 843f
00000050: 8f44 853f 0467 803f bda0 803f 96f2 813f
00000060: b2a5 823f 127f 813f 8a91 873f fb9a 833f
00000070: ffb5 803f 67f2 843f f71a 853f 71c7 803f
00000080: db79 813f 3cbd 7e3f b342 823f f4f8 833f
00000090: 892e 823f 58a4 843f 9c58 803f a36f 823f
000000a0: 5dff 813f a0e4 823f a11e 843f c4bf 843f
000000b0: b933 843f cda2 843f 9355 853f d52f 823f
000000c0: 140a 863f 1b18 813f 4954 843f 8684 803f
000000d0: ffbf 823f 6ad5 843f f0fe 823f a38e 823f
000000e0: c676 823f 5aa1 813f db4f 833f b895 813f
000000f0: be4b 843f c3f1 823f 0868 843f dfc6 833f
1.0185046 1.00783 1.0198363 1.0202472 1.0239996 1.0433122 1.0229115 1.0153811
1.0877677 1.0050318 1.0298232 1.0292547 1.0514097 1.0363976 1.0588133 1.011454
1.0246114 1.026427 0.98438114 1.0316257 1.0411547 1.0031438 1.0049053 1.0152156
1.0206816 1.0116904 1.059129 1.0281671 1.0055541 1.0386475 1.0398854 1.0060865
1.0115312 0.995075 1.0176605 1.031035 1.0170451 1.0362654 1.0027041 1.0190319
1.0156056 1.0226021 1.0321847 1.0371022 1.0328285 1.0362183 1.041674 1.0170847
1.0471826 1.0085481 1.0338222 1.0040443 1.0214843 1.0377629 1.0234051 1.0199779
1.0192497 1.0127366 1.0258745 1.0123816 1.0335615 1.023003 1.0344248 1.0295066

bias f4 [64]
00000000: 21fc e03b 75de 323a 8edd 4a3b ffc6 213c
00000010: 47d2 f83b 37ed e83c 182f ff39 1f38 473c
00000020: bca3 333d ae31 dfba a322 d83c 5e1d 073c
00000030: 3240 103c 3ee3 423c 80f6 933c fe24 0c3c
00000040: a037 b43c e141 993c 1de1 5ebc af63 a03c
00000050: 2b71 a73c 38f1 9539 2aaa 6a3b 03c9 0e3b
00000060: e63b 84ba cf8a 7b3c 1b9c 1d3d df88 b33c
00000070: 6f54 87bb 6607 e23c cdf6 d83c 9727 8a3b
00000080: 0ea9 a63b 1f29 fbba 4558 3b3c e27f 1d3c
00000090: d4fa cf3b 368d eb3c 51cc 41bb 6327 1c3c
000000a0: f729 3c3b c1c8 593c 507b c53c 2e28 113c
000000b0: 2109 843c cb54 c63c 51f8 043d 78c0 f73b
000000c0: 8854 f13c c24e cf3a 102d 853c ba62 1bbb
000000d0: 32bc 353c c653 363c b336 58bb d50b 723c
000000e0: dca3 9e3c 63e8 b2bb 3754 9d3c d837 203c
000000f0: 4b28 ab3c 2d45 3a3c 668c 383c 0c82 b23c
0.0068659936 0.000682331 0.003095481 0.0098741045 0.0075934264 0.028433425 0.00048672478 0.012159376
0.04385732 -0.0017028356 0.026383704 0.008246748 0.008804368 0.011894999 0.018061876 0.0085537415
0.02199918 0.018708171 -0.013603476 0.019578783 0.020439705 0.00028599217 0.0035806992 0.0021787293
-0.0010088652 0.015352919 0.038478952 0.021915851 -0.0041299383 0.027591418 0.026484871 0.0042161453
0.005086071 -0.0019162035 0.011434619 0.009613009 0.0063470397 0.028753858 -0.0029571245 0.009530875
0.0028711536 0.013292492 0.024106652 0.008859677 0.016117634 0.024210354 0.032463375 0.007560786
0.029459253 0.0015816318 0.016256839 -0.0023709969 0.011092233 0.011128372 -0.0032991588 0.014773329
0.019365244 -0.0054598316 0.019205196 0.009778939 0.020893237 0.011369032 0.011263942 0.021790527

weight f4 [2, 64]
00000000: 6e61 ea3d 20bd d93d 31ae 833d ec5f fabd
00000010: 8a7a 05be 3098 a0bd c201 b03d 7874 d73c
00000020: 8fcc e2bc f567 d33d 98ba b23c bf56 ff3d
00000030: 5944 073c 8661 05be 9cee 87bd d21e fe3d
00000040: a73a f43c 9336 2a3d 2208 df3d 3941 93bc
00000050: e8a7 07bd 9da9 8ebc b629 bb3d 7724 163d
00000060: 5eca b63d 5bf6 53bd 41f9 1c3d 9ba7 f53d
00000070: e2f1 4b3d 8e0d fabd 680c 93bc c066 e0bd
00000080: e2bb 71bd 9c64 8bbd 7cfc cd3d 153a cdbc
00000090: 4d96 823d aba5 3cbc 1864 f7bc 40f2 e33c
000000a0: c4ef 2bbd 3be1 b43c 3079 a1bb 84ab 78bd
000000b0: 35c7 77bd 6325 eb3c 9183 cbbd 04ce 07bd
000000c0: f4f1 05bd b6a2 d3bd e975 99bd 9ba2 ea3d
000000d0: eacd 08be d79a 153c 5238 f5bd bd17 febb
000000e0: 0f60 1fbc 4d64 5f3d 3d53 023e 6746 9cbd
000000f0: 084e a73d 0d3a 003e 0676 89bd 2763 053d
00000100: 238d c73c d47f 9abc 83e4 d13d a349 c3bd
00000110: 0884 8dbd 1f29 f83d 33a4 e7bc efbb 003e
00000120: bfc2 90bd 41c5 573d afb7 b8bd d2bd ffbd
00000130: a92c 8d3b 0976 7fbc cc52 85bd 5b4f 88bc
00000140: ac37 06be b652 043e a63a d33d 4816 0c3e
00000150: 1c29 e23d 306e 8e3d 629e acbd 32c3 063e
00000160: 571a 8a3d 8887 c83d 9ac0 59ba 7cf9 c3bd
00000170: 4483 db3d d032 dfbc 8771 04bd ff0d 89bd
00000180: fb83 c53d b8b7 943d 014d f93d 8668 12be
00000190: dc3e e13d 97f5 4fbd 3b8d 713c a26d 013e
000001a0: e1b3 e43d fcc3 c2bd 4a45 c73d 97a6 b5bc
000001b0: b6e4 7abd 62ed ddbd b073 c93c 7385 b23d
000001c0: 3e3e 293d 22c3 a9bd 37e9 03bc 175a ebbd
000001d0: 3678 db3d 691c 93bc a1c4 d63d 7533 bf3d
000001e0: a81b d1bd a908 383d 1890 cebd 8a72 053c
000001f0: e91f a03d 1170 27be d099 f1bc 95fc f3bd
0.114443645 0.10631776 0.06429709 -0.12225327 -0.13035026 -0.078415275 0.08594085 0.026300654
-0.027685432 0.103225626 0.02181749 0.124677174 0.008256041 -0.13025483 -0.06637308 0.12408222
0.029813124 0.041555952 0.10890223 -0.017975437 -0.033119112 -0.017414862 0.09138815 0.03665587
0.08925317 -0.051748615 0.038323645 0.11994859 0.049791224 -0.122096166 -0.017950252 -0.10957098
-0.05901707 -0.06806299 0.10057923 -0.02505211 0.06376324 -0.011514108 -0.030199096 0.027825475
-0.041976705 0.022080055 -0.0049277768 -0.060710445 -0.060492713 0.02870435 -0.09937204 -0.033155456
-0.032701448 -0.10333769 -0.07493193 0.11456796 -0.133598 0.009131155 -0.11973633 -0.0077542947
-0.009727492 0.054539014 0.12727065 -0.07630616 0.0816918 0.12522145 -0.06711964 0.032565262
0.024359291 -0.018859781 0.10248663 -0.095355295 -0.069099486 0.12117218 -0.028276538 0.12571691
-0.07068395 0.05267835 -0.0901941 -0.12487377 0.0043083024 -0.015592107 -0.06509933 -0.016639402
-0.13107175 0.12922177 0.10313921 0.13680375 0.11042997 0.0695461 -0.084286466 0.13160399
0.06743305 0.097914755 -0.0008306593 -0.0956907 0.10718396 -0.027245909 -0.03233483 -0.06692123
0.09644314 0.07261604 0.121728905 -0.14297685 0.109983176 -0.050771322 0.014743145 0.12639478
0.11167122 -0.09510037 0.09730013 -0.022174163 -0.061253272 -0.10836293 0.024591297 0.0871686
0.041319124 -0.08289172 -0.008051208 -0.11491793 0.10716288 -0.017957883 0.10486723 0.093359865
-0.10210353 0.044930134 -0.100860775 0.008144984 0.078185864 -0.16351344 -0.029492289 -0.119134106

bias f4 [2]
00000000: 6bd8 bcbd a1e6 313c
-0.09220966 0.010858209

weight f4 [2, 64]
00000000: 534c bc3d 0310 e43d 3d56 ef3d 35cf 0cbe
00000010: 00ac de3d e55c 0fbe 1d68 6a3d fa46 6abd
00000020: bc1b 0e3e 9120 9ebc 295d 0fbe fe82 fc3d
00000030: b873 3d3d faad 163e 5365 173e 8415 e2bd
00000040: 5ee6 04be 6d6f 64bd 5558 ac3b 2631 6abb
00000050: 9f01 febd f866 6fbc df4d 8b3d 0562 9d3d
00000060: 51f6 ea3c 8f5f 38bd 65bd 113e 44bd bbbd
00000070: 862f 81bd b0ee f1bd 7501 843c d98e 1ebd
00000080: b783 a6bc 1576 bcbc 41d8 12be 7d9e 9b3c
00000090: 2188 8fbd 6231 f3bd 327d 1c3d 4098 3abc
000000a0: 3940 5abd 085c 83bd 0c4b 09be 7440 d33d
000000b0: 0604 d5bd 61d3 b9bb e7b7 28be d4a2 143e
000000c0: b496 233e f733 993d d328 113e d1ca 96bd
000000d0: a3d7 a1bd 7dab ff3d 0c40 d03d a1b3 9dbd
000000e0: 154b e43b 980d 4a3d 88a5 16be 4291 8f3d
000000f0: 98d3 13be 70df 11bd 967e bc3d 9830 12be
00000100: b7b8 ecbd f8b4 c3bb 2fcd 833d e997 7f3d
00000110: 1827 c6bd b4ea 4dbe 5e7f fc3d 6e63 f93d
00000120: b742 7c3d 2aaf 06be 194b d03c 33c6 07bd
00000130: 7ad1 033e d343 c83d 3a30 2b3e 1f61 a03b
00000140: b839 e43c 1324 28be 3756 99bd c1f2 4abe
00000150: e648 8abd 13e7 d1bd 902c 90bd 322d 973c
00000160: 98d4 71bc 7e05 96bd 3361 153e c8c9 20be
00000170: 003d a13d 185e 36be f1ea 0a3e 31f2 963c
00000180: 172e fe3c 9461 8d3d d9a5 90bd 1a5c d33d
00000190: e828 d5bd 1e8c 5ebc f0f1 33bd 8e94 8abd
000001a0: e187 76bd cf99 b43d d1d5 f3bd b1d9 b03d
000001b0: 5975 c03d d99d 1cbe 8dc7 2ebe 88c6 62bd
000001c0: a35e 38bb 0710 fabd fe97 813d a073 93bd
000001d0: 7c57 adbd d899 cf3d 1321 02be 0603 053e
000001e0: 967c b7bd 04ce c0bd 0447 cfbd d243 19bd
000001f0: dd98 2bbd 6172 263d fdcc ccbb 3e9f af3c
0.09194245 0.111358665 0.116863705 -0.13750918 0.1087265 -0.1400028 0.057228196 -0.057196595
0.13877767 -0.019302638 -0.14000382 0.12329672 0.046252936 0.14714804 0.14784746 -0.1103926
-0.12978503 -0.055770326 0.0052595534 -0.003573486 -0.12402653 -0.014611952 0.06801962 0.07684711
0.028681906 -0.045013007 0.14232405 -0.09166959 -0.063078925 -0.11813104 0.016113976 -0.03871045
-0.020326478 -0.023005525 -0.14340307 0.018996472 -0.070083864 -0.118746534 0.038205333 -0.011388838
-0.053283904 -0.06414038 -0.13407534 0.10315028 -0.10401158 -0.0056709503 -0.16476403 0.14515239
0.15975457 0.07480615 0.1417573 -0.07362903 -0.079024576 0.12483881 0.10168466 -0.07700277
0.0069669583 0.04932937 -0.14711583 0.070101276 -0.14436185 -0.035613477 0.09203832 -0.1427635
-0.11558669 -0.005972501 0.0643562 0.062400732 -0.09675425 -0.20109063 0.12328981 0.12177168
0.06158706 -0.13152757 0.025426434 -0.033148002 0.12872878 0.097785614 0.16717616 0.0048943902
0.027859554 -0.16420011 -0.07487147 -0.19819166 -0.067521855 -0.10249152 -0.070397496 0.018454168
-0.014760159 -0.07325266 0.1458786 -0.15701973 0.07872963 -0.17809331 0.13566186 0.018426033
0.031027837 0.06903377 -0.07062883 0.10320301 -0.10408193 -0.013583211 -0.0439319 -0.06766616
-0.060188178 0.08818399 -0.119060166 0.08635271 0.09397382 -0.15294589 -0.1706831 -0.055365115
-0.002813258 -0.12210088 0.06327818 -0.07199788 -0.08463952 0.10136765 -0.1270793 0.12989435
-0.0895931 -0.09414294 -0.10120967 -0.037418194 -0.04189383 0.040636424 -0.0062500224 0.021438237

bias f4 [2]
00000000: e45e 04be 9e0c bdbd
-0.12926823 -0.09230922
