model_2_DDPG.pt (torch, 652515 bytes, 156 tensors)

weight f4 [64, 11]
00000000: 146a 24be 499a 603b 5d1c d0be 91aa c2be
00000010: 0b84 8cbe 84a5 9ebd da3b 28be dc5f a53d
00000020: 7c83 3dbe 07d6 a0bd 0e61 7fbe e994 f9be
00000030: 6b0c 16bf 4f1c d8be be16 d8be 13ea 9dbe
00000040: dc2d a43e da0b 66bc fbb0 c2bd 65cf c9be
00000050: 9e90 a0bd b86d 873e 0086 92bf 493b fb3e
00000060: e053 763f d3b9 6cbf d7ef b43f 3296 42c0
00000070: 7b0d 23bf 2873 b5bf bd56 9bbf 5210 563f
00000080: 08e9 53bf dc83 50be 6467 90be 0554 c9be
00000090: 5e80 83be 6ba8 563e 1f68 523d dccb 4d3d
000000a0: bd3d d5bd b394 72be 657c 20bd deb7 c5be
000000b0: bb23 f3be e57a 82be 603b 9abd ed6e c6bd
000000c0: 2bc5 75be 4b35 91be 8477 a5bd 1d6c 9e3c
000000d0: 6dab 1ebe f593 72be d689 9dbd 0c40 97be
000000e0: 8c73 84bd 7824 97be 90ff b0be 7722 7ebe
000000f0: b753 41bd 6cfd b93b 035f 91be 821f 4bbd
00000100: dd45 023d cb2d 51be 923a 8bbe e356 28bf
00000110: a024 6b3f 4b91 4cbe 617d 23bf 1592 1f40
00000120: c184 5040 7a83 a73e f273 8cbe 2ae1 6e40
00000130: 01bc 1cc1 9770 d7be 3b14 06be 55cb b1be
00000140: 2619 e1be eead df3d 3291 903d 952e ebbe
00000150: 3159 d1bd 9b79 56be 9e1e 55be 6ae7 97be
00000160: ceef 93bc f10b a0be 544f c0bc 8053 973c
00000170: 059c a73d c4b7 adbc 1a64 ddbe 26b7 a8be
00000180: ea88 873c 2a26 91bd 4305 bdbe 6cc8 31be
00000190: 203a 913e 280a 503e 299f 06be 066a 9bbd
000001a0: 630e 93be 4095 b1bb 5181 68be 9027 6ebe
000001b0: 5018 88bc 806d 393d 1672 bbbe c90e 5e3e
000001c0: cfd3 fabe 5442 5a3b 804e 303f e25b edbf
000001d0: ea62 02bf cb4a 71bf f34f 80be b37c a8bd
000001e0: 2a24 83bf c0f3 933c 97a5 16be 9218 123e
000001f0: 3915 94be 2dff 36be d693 9abd 2565 16be
00000200: 3c05 d8bd 660e 7dbe c059 83bd 5cfe 833d
00000210: c6c7 c1bf 41e1 2b40 8fb4 e3bd 0d87 85bf
00000220: bd69 b440 7eb8 473f 6e77 803f 4699 c73f
00000230: a7d7 1cbf 003e 0e40 ca28 ab40 6a85 2fbe
00000240: 64ad 8abe 603b 94be 3e29 663d 0018 00bb
00000250: 46de 97be b39c adbe d6d9 d7be 08b4 cebe
00000260: 967b 05be 13b5 823c 4e7d 7d3d 7fb5 a1be
00000270: bb19 d43d a668 a4be c484 bcbd 9e80 a6be
00000280: 540e 5fbe 5d00 19be c92e b5be 85fa dbbe
00000290: 5257 c6bd f26e 8bbf 76bb 673f 8a07 b03f
000002a0: 909f 303c e4ce 1cbf 7341 913f ae58 91bf
000002b0: 466a 7e3f 04d3 e33e 4e1e e8c0 3548 8c40
000002c0: 2914 8ac0 9f19 a9be 78c1 c4bf 0adf 16c0
000002d0: 4dd8 5d3f 411c b63e 56ad 793f b15b be3c
000002e0: 26a4 e2bf fb47 983f 10f3 02c1 d4dc 81bd
000002f0: e56e 7ebe 084b 273e 8c23 753e b840 533e
00000300: acc8 59be 6052 5c3c 90a5 59be eff5 29be
00000310: b0e8 33be a406 d33d 1c6a 85be 747d 39be
00000320: 89a4 30be 32a9 7a3d 85a2 cbbe daed b8be
00000330: b10a abbe 2412 403d 095b 79be 03ce ba3d
00000340: 24be a4bd c861 1c3d 0018 13bb 8422 74bd
00000350: 20f3 1a3d 7200 8dbd 80d7 0abb 8093 1d3d
00000360: 0481 71be 07d3 21be bc4f 793e 2890 7abe
00000370: 0f05 2ebe 6ab6 983e 7bf1 2cbd ec7c 10be
00000380: 29c8 85be fcb4 0bbb 440c 9ebe d5b8 55be
00000390: d977 80be f242 b9bd e4cd 17be cbdb 3c3f
000003a0: 58b5 eebf d734 5d3f e536 283f 4496 c5bf
000003b0: a6f9 1140 872f 0a40 15d7 933e 881d 0e3f
000003c0: 81fa 8c40 e79b 31c0 47fe a5be e6ed 93be
000003d0: 77e7 0bbe 0c13 08bf d6b8 babd 7c30 e5be
000003e0: 189b 78be 81fa 9dbe 2b5b ccbe b2af 57be
000003f0: b03f b23b 8481 b4bd 384d 37be ac5f e4bd
-0.1605609 0.0034271649 -0.4064664 -0.38020757 -0.2744449 -0.07746413 -0.16429082 0.08074924
-0.18507189 -0.078533225 -0.24939367 -0.48746422 -0.586127 -0.42209098 -0.4220485 -0.30842647
0.32066238 -0.014040912 -0.095064126 -0.39416042 -0.078400835 0.26450896 -1.1447144 0.49068668
0.96221733 -0.92471045 1.4135693 -3.0404172 -0.63692445 -1.4175768 -1.2135845 0.8361865
-0.8277745 -0.203628 -0.2820388 -0.39321914 -0.25683874 0.20962684 0.05136883 0.050243244
-0.10412166 -0.23689537 -0.039181132 -0.38616842 -0.47488198 -0.25484386 -0.07530856 -0.09689126
-0.24000995 -0.28360972 -0.080794364 0.019338662 -0.15495081 -0.23689254 -0.07692306 -0.2954105
-0.06467351 -0.2952001 -0.3456998 -0.24817835 -0.047198977 0.005675962 -0.283928 -0.049590595
0.031804908 -0.20427625 -0.27193123 -0.6575758 0.9185276 -0.199773 -0.6386319 2.4932911
3.2581027 0.32717496 -0.2743221 3.732493 -9.795899 -0.42078087 -0.13093655 -0.34725443
-0.439645 0.10921846 0.07058944 -0.45933977 -0.1022209 -0.20944826 -0.20812461 -0.29668742
-0.018058684 -0.3125911 -0.023475327 0.018472433 0.08184055 -0.02120579 -0.43240434 -0.3295223
0.016544778 -0.07087357 -0.36918077 -0.17361611 0.28364658 0.20316374 -0.13146652 -0.07588582
-0.28721914 -0.0054194033 -0.2270558 -0.2325728 -0.016613156 0.045270443 -0.36610478 0.21685328
-0.48989722 0.0033303695 0.6886978 -1.8543665 -0.5093218 -0.9425475 -0.25060996 -0.082269095
-1.0245411 0.018060565 -0.14711605 0.14267185 -0.28922442 -0.1787078 -0.07547729 -0.14687021
-0.105478734 -0.24712524 -0.06413603 0.064449996 -1.5139091 2.6856234 -0.11118423 -1.0431839
5.6379075 0.7801589 1.0036447 1.559365 -0.6126656 2.2225342 5.348729 -0.17140737
-0.27085412 -0.2895155 0.056191675 -0.0019545555 -0.2966177 -0.33908615 -0.42158383 -0.40371728
-0.13035426 0.015955484 0.061887078 -0.31583783 0.1035647 -0.3211109 -0.092050105 -0.32520002
-0.2178281 -0.14941545 -0.35387257 -0.4296457 -0.09684624 -1.0893233 0.9052042 1.3752301
0.01078023 -0.6125319 1.1348099 -1.1355188 0.9938091 0.4449693 -7.2536993 4.3838143
-4.314961 -0.3302736 -1.5371542 -2.3573632 0.86658174 0.3556843 0.97530115 0.023237081
-1.7706344 1.1896967 -8.184341 -0.06340948 -0.2484699 0.16337216 0.23939341 0.20630157
-0.21267956 0.013447374 -0.21254563 -0.16597722 -0.17569232 0.10304001 -0.26057518 -0.18114263
-0.17250265 0.061196513 -0.3977243 -0.36118966 -0.33406594 0.0468923 -0.24351133 0.09121325
-0.08044079 0.03817919 -0.0022444725 -0.05960323 0.03782952 -0.068848506 -0.0021185577 0.038470745
-0.23584372 -0.15803157 0.24346823 -0.24469054 -0.16994117 0.2982667 -0.04222248 -0.14110154
-0.26129273 -0.0021317592 -0.30868733 -0.20871289 -0.25091437 -0.09045972 -0.14824635 0.7377288
-1.8649092 0.8640875 0.6570876 -1.5436482 2.2808623 2.1591508 0.28875032 0.5551381
4.405579 -2.7751405 -0.3242056 -0.2889244 -0.13662516 -0.53154063 -0.09117286 -0.44763553
-0.24277914 -0.30855182 -0.39913306 -0.21063116 0.005439721 -0.08813766 -0.1790055 -0.111510605

bias f4 [64]
00000000: 72ec b2be b4a7 20be fc7e 5dbf bb48 2f3e
00000010: 63db d5be 71d3 ed3c 82a7 60bf a58e 9abe
00000020: 500a cbbe 0ca4 8dbe 5715 783d c600 9abd
00000030: 8f6d 28bf 06a4 8bbd a9c7 143e 3a9b 963f
00000040: 2a6d b9be f3be 64be b8a6 54be 95b2 36be
00000050: bed0 a5be 41e6 1e3f 3b04 e43c c456 77be
00000060: 3abf 08bd 8e70 62be afff c9be f877 2f3e
00000070: 7972 0cbe 963a f9bd bfff e5be 9d02 04be
00000080: 4463 4abe 3191 eebe 8f64 11bf 0e35 e2be
00000090: 0401 ddbf ce1c 12be 9c6e f43d deee 36be
000000a0: 1b47 33bf d57e e8bd 9f80 13bd fcf4 21be
000000b0: 52c4 383f 50f2 1dbf 4a85 cbbe 76a2 b53e
000000c0: ccf5 013c a1b6 5340 0488 22be abe9 78bd
000000d0: ffa1 95be aab0 ea3e ccf0 97be 441f a3be
000000e0: 1998 0ebf 8827 f83c 72a9 a3be 52d0 3140
000000f0: 922d 0bbf d1df 86be 73f0 883e 78c9 1140
-0.34946018 -0.15688974 -0.8652189 0.17117588 -0.4176894 0.029031487 -0.87755597 -0.30186954
-0.39656305 -0.2766422 0.060567226 -0.07519679 -0.65792173 -0.06818394 0.1452929 1.1766121
-0.36216098 -0.22338466 -0.20766723 -0.17841561 -0.3238582 0.6207009 0.027834048 -0.24154192
-0.033385493 -0.22113249 -0.39452884 0.17135608 -0.13715543 -0.121693775 -0.4492168 -0.12891622
-0.1976443 -0.46595147 -0.56794065 -0.44181103 -1.7265935 -0.142688 0.119351596 -0.17864558
-0.70030373 -0.11352316 -0.036011335 -0.1581611 0.7217456 -0.61697865 -0.3975013 0.3547551
0.007932138 3.3080218 -0.15872198 -0.06076972 -0.29225156 0.4583791 -0.296759 -0.3185979
-0.5570083 0.030292287 -0.31965214 2.7783399 -0.5436641 -0.26342633 0.26745948 2.2779217

weight f4 [64, 64]
00000000: c21f 7f3d 3310 993e 2af8 0840 3ce0 09be
00000010: 9319 c63c 9fb5 923d 27fd d43d 0ea7 65be
00000020: 6a97 833e 38bf 97bd 096e 04c0 46ae f5bd
00000030: 8cf5 0340 1056 b23d a698 29be 9022 03bf
00000040: 0697 bdbe 7cc5 56bd 0fef 07be 4062 f9bd
00000050: 82df fd3b 0ab5 1140 3a8b b23c 2057 253d
00000060: 756c 073e 4b61 aebd f9f8 9bbf 386c 2ebf
00000070: adf3 e8bd b71e 17be a66f 4a3e 7863 d13d
00000080: 516f 303e 0c18 893e e0b7 d0be a44d 663f
00000090: 599a ec3e d0e8 493e 9675 69be f31e 4dbd
000000a0: b797 c73f 5322 f03f 8542 2dbe b4e4 30bd
000000b0: a7ae 1740 2ac2 aa3e 8410 08be fb33 ee3f
000000c0: 999e c73f beb3 9e3e 5785 43be 26a7 9b3c
000000d0: fd0d c93c 3551 043e 5ffa 90be 7e79 a7bd
000000e0: 66d0 30c0 8697 753e 6265 af3c c53a b1bf
000000f0: 78af 9c3e 5b61 c4bc 3589 c63f 5d63 1b40
00000100: e9ec 09be d122 c6bc bd8f b4bf d5f7 a73c
00000110: b8e0 d9bc cac2 ccbc 09a1 0b40 a5f0 efbd
00000120: ce5c e03d 324a a73d 2958 b4bf b466 413d
00000130: 4f9e 1d3f ad9c a2bd db32 14be 5eda 98bf
00000140: ecca 0940 b863 c83c dc0c 80bd fe3e b13d
00000150: ccff 52bd 03f5 2b40 67bb d63d e8cc debd
00000160: d0d9 d63c b9da 40be 53ef 5f3e 672e 0fbf
00000170: 2479 283d 3836 893d d6b6 d83d 736f da3d
00000180: ca08 763e d6e9 8a3d 9c54 34be 26c9 06bf
00000190: e908 623e 92c5 c33c 0ae7 2c3e f850 42bc
000001a0: 3dc0 26bf b6ee f73b 2e3a f9bd 180c 9a3c
000001b0: 1b94 2540 46c1 033f 2074 a53d 1bcd babf
000001c0: a2f2 21bf 8dce 7fbe f893 063d 41c3 a13d
000001d0: 9164 4cbd e1a5 0abf 07b5 53be f45e d1bd
000001e0: 0d1a 34c0 fc68 b13e 622f a9be 371e eac0
000001f0: 936c 2ebd 0eae 673d 61d1 ecbc 28ca c3bf
00000200: 84d0 f63c 8dce 653e 8b77 b8be 164c b13c
00000210: d04c 673d e41b d43e 44c2 c540 b0b5 83bd
00000220: 73d7 3cbd 6020 84bc 7910 e2be 7c11 3ebd
00000230: ffdd 3f40 80dd acbd 07cd edbd 31a3 19c1
00000240: 9850 5c40 b05b f73c 88cb 373e 887c 3a3d
00000250: 28e8 ddbd 5ae3 1540 4b7a 223d c88c 8b3c
00000260: 1b1e e73d a4b4 3cbe 33f9 1140 67bf c03e
00000270: b609 163d 591c 3dbe d51e 033e 853e ea39
00000280: b203 583e f387 adbe 51ad 5f3f 7039 50c0
00000290: 32e7 f43f 5d30 453e 14a3 6ebe 5981 953d
000002a0: e760 4540 b9e4 ff3f 3320 7ebd a0b3 f1bd
000002b0: 9d0d 4a40 58a7 cf3e f63d 50be fe86 6dc0
000002c0: 17e0 98be bb33 1dbf 3b1b 66be de49 33be
000002d0: 7e55 1dbe 876d 8b3f 109f bbbe bd1a 86bd
000002e0: f654 21c0 a3fd 1cbe fcf0 91bd 398a 27bf
000002f0: 2267 30bd 3feb aabd 7b6a dabf 0131 b83f
00000300: eb35 79be 1c16 efbd d129 273f 0c58 1bbe
00000310: 1b96 e2bd 5475 ee3c 60fa b83e 90dc 64be
00000320: 9841 243e d8f6 b33d 6e69 1abe c89a dd3c
00000330: d960 3140 8229 a13d b1ea 84be 4c6a c1bf
00000340: 759f 233f d2c4 e13d 816d d9bd 18a0 8a3d
00000350: 56dc 0fbd efb0 9d3f 6f03 d43d b25e 8bbd
00000360: db16 863d 0ec7 b2bd c61c a03e 6a80 fc3e
00000370: 3939 5abc 869f c53c c3ce 4bbe 2334 213e
00000380: 36ae 0e3e f7c4 c3be bfe4 f63d a2cb 1740
00000390: 3b19 2b3f 57bf abbb 33d5 b1be 0385 f5bd
000003a0: ebb5 d23f 3c06 dc3f 67dc dabd c87d d4bd
000003b0: c278 1a40 5fc0 883f 86fe 75be d048 bb3f
000003c0: ea85 493f e9a8 163d d1c0 39bd 75bd 80bd
000003d0: 7103 07be 6838 37bd ade4 d7be df82 f43d
000003e0: 47a9 3fbf 956f ccbd 32ca b5be b33d 31bf
000003f0: 80fa 1e3d 61fe 45bd 9e40 b3bf c9bf f53f
0.062286146 0.29895172 2.1401467 -0.13464445 0.024182117 0.07163548 0.103998475 -0.22427008
0.25701457 -0.07409519 -2.069216 -0.11996131 2.061862 0.08707821 -0.16562137 -0.51224613
-0.37029284 -0.05243443 -0.13274787 -0.12176943 0.0077475915 2.2766747 0.021794904 0.040366292
0.13224967 -0.08514651 -1.2185355 -0.6813388 -0.113746025 -0.1475781 0.19769153 0.1022405
0.17229964 0.2677616 -0.40765285 0.8996222 0.46211508 0.19717717 -0.22798762 -0.050078344
1.5593175 1.8760475 -0.16919906 -0.04318686 2.370035 0.3335126 -0.1328755 1.8609613
1.5595275 0.30996507 -0.19093834 0.019000601 0.024542803 0.12921603 -0.28316018 -0.0817747
-2.7627196 0.23983583 0.021410648 -1.384606 0.30602622 -0.023972204 1.5510622 2.4279397
-0.1346928 -0.024186524 -1.4106365 0.020503918 -0.026596412 -0.024995226 2.1817038 -0.11715821
0.10955201 0.081684485 -1.4089404 0.047217086 0.61569685 -0.0794004 -0.14472525 -1.194164
2.1530104 0.024461612 -0.06252453 0.08654593 -0.05151348 2.6868293 0.10484963 -0.108789265
0.026226908 -0.18833436 0.21868639 -0.5593018 0.041131154 0.066997945 0.10581748 0.106657885
0.2402679 0.06782882 -0.17610401 -0.5265068 0.22073711 0.02389792 0.1688501 -0.011860125
-0.6513708 0.0075662984 -0.121693 0.018804595 2.5871646 0.51466787 0.0807879 -1.4593843
-0.63260853 -0.24981137 0.032855958 0.0789857 -0.049900595 -0.5415936 -0.20674525 -0.10223189
-2.81409 0.3465041 -0.33043963 -7.3161883 -0.042584013 0.056562476 -0.028908433 -1.5296068
0.030128725 0.22442074 -0.36028704 0.021642726 0.05646974 0.4142753 6.179964 -0.064311385
-0.046103906 -0.016128719 -0.44153193 -0.046403393 2.9979246 -0.08440685 -0.116113715 -9.602342
3.442419 0.030195087 0.17948735 0.04552892 -0.10835296 2.3420014 0.03966741 0.017034903
0.11285039 -0.18428284 2.280835 0.37646028 0.036630355 -0.18467845 0.1280473 0.0004467854
0.2109516 -0.33892784 0.87373835 -3.2535057 1.9133055 0.1925673 -0.23304397 0.07300062
3.0840394 1.9991676 -0.062042426 -0.11801839 3.157081 0.4055736 -0.20336136 -3.7113643
-0.29858467 -0.6140706 -0.22471325 -0.17508647 -0.15364644 1.08928 -0.36644793 -0.06548069
-2.5208106 -0.1533113 -0.07126042 -0.65445286 -0.043067105 -0.08345651 -1.7063745 1.4389955
-0.24336974 -0.11674139 0.6529818 -0.15170306 -0.110637866 0.02910868 0.3612852 -0.22349763
0.16040647 0.08787316 -0.1507928 0.027051345 2.771536 0.07869245 -0.25960305 -1.5110564
0.6391519 0.110238686 -0.10616589 0.06768817 -0.035122238 1.2319621 0.103522174 -0.06805171
0.06547328 -0.08729373 0.31271952 0.49316722 -0.013319307 0.024123918 -0.19903092 0.15742545
0.13933644 -0.3823621 0.120553486 2.3718038 0.66835374 -0.0052413153 -0.3473297 -0.119882606
1.6461767 1.7189403 -0.1068657 -0.10375553 2.4136205 1.0683707 -0.24022874 1.4631596
0.7871996 0.03678218 -0.0453499 -0.06286136 -0.13184907 -0.044731528 -0.42166653 0.11939024
-0.7486767 -0.0998222 -0.35505825 -0.6923477 0.038813114 -0.048338298 -1.4004095 1.9199153

bias f4 [64]
00000000: 9d9b a43f 733f 3e3e 3fa7 d9bd 649b 2440
00000010: e5b6 1d3e 060d 02be 95b5 fb3f baad 0a40
00000020: f1fd 3040 fcc6 1c3f 6783 3840 7f69 fd3f
00000030: dac1 3240 513b 24c0 e789 d73f a702 5a40
00000040: da58 e93f 5aeb 5dbe f00a 27bf fd5b 3f3f
00000050: f4b7 d23e de60 2740 455a f23f 9157 4d40
00000060: 9e7b 66be 60f2 0440 3244 bb3f ff61 7940
00000070: 8449 cc3f 609a bc3f 6511 0540 63cd 473f
00000080: 0046 5a3e d868 06bf 457e 0f40 62c5 1dc0
00000090: 5766 8a40 873b d93d bb6c 2f40 8d6d 5c3f
000000a0: c013 0540 49e2 4fc0 997f 3940 5b53 c53f
000000b0: c733 1b40 4163 97bf 0776 3140 b9a2 2a40
000000c0: f80e 2140 8121 8bbe e669 aa3f 6a59 913f
000000d0: 7681 ab3e 8144 6340 b23b 2a3f 18b9 6440
000000e0: 439a 3cbf ab37 1140 d3ee 3240 255e 223f
000000f0: 29d9 813f a990 e93f 2f79 1740 def0 0a40
1.285999 0.18578891 -0.10627603 2.5719843 0.154018 -0.1270028 1.966479 2.1668534
2.7654994 0.61241126 2.8830202 1.979782 2.7930818 -2.5661204 1.683896 3.406412
1.823024 -0.21671811 -0.65251064 0.7474974 0.4115597 2.6152873 1.8933798 3.2084696
-0.22508094 2.0772934 1.4630187 3.8966062 1.5959935 1.4734612 2.0791867 0.7804777
0.21315765 -0.5250373 2.2420819 -2.4651723 4.3249927 0.10607057 2.7410114 0.8610466
2.0793304 -3.2481863 2.898413 1.5416063 2.4250352 -1.1827165 2.7728288 2.6661818
2.5165386 -0.27174 1.3313568 1.1355412 0.33497208 3.5510561 0.6649734 3.5737972
-0.73672885 2.2690227 2.7958267 0.63424903 1.0144397 1.8247272 2.3667715 2.1709514

weight f4 [64]
00000000: 5ab0 8a3f 7a46 d940 bb1e 9c40 630d 143f
00000010: 476d d840 cac0 9640 3d37 8940 3d99 0d3f
00000020: d9db d83e efe1 be40 f0e6 463e 93cb e53e
00000030: d8ed 383e f7e2 fb40 ad43 573f 2ddf 8340
00000040: 84d0 9f3e ce84 7e40 fec0 4d40 36fd 9940
00000050: 8a4d 0041 60a8 b13e 5fdf d73e 7fa9 8340
00000060: 2585 c640 32e5 3c3f 0ab7 8240 afab 6440
00000070: b077 4140 8050 4e40 e268 ce3e 9d8d ba40
00000080: 04d2 0d40 95d5 9c40 fcd9 e33e 8b28 0541
00000090: cdfd 7e40 b729 b140 f748 853e 651c a140
000000a0: 427d 363f e90e ad40 0c44 9640 0128 af40
000000b0: 5930 fb3e 150b 3a40 5c55 4e3e b3c0 8f3e
000000c0: d571 af3e 0702 9d40 bda2 7540 3f79 4a40
000000d0: 7027 b440 9823 3d40 fc36 8840 6925 5240
000000e0: cb79 d540 55a3 a73e 5aad 973e cdd7 8740
000000f0: 33e6 1040 c41a b840 eb7c f63e 2399 e43e
1.0835068 6.789853 4.8787513 0.57832927 6.7633395 4.711034 4.287993 0.5531195
0.4235523 5.96508 0.19424033 0.44881877 0.1805948 7.8714557 0.8408764 4.120993
0.31213772 3.9768558 3.2149043 4.8121595 8.01893 0.34698772 0.42162606 4.1144404
6.203753 0.73787224 4.0848436 3.5729787 3.0229301 3.2236633 0.40314394 5.829787
2.2159433 4.901072 0.44502246 8.322398 3.9842408 5.536342 0.2603223 5.034716
0.7128488 5.40807 4.6958065 5.4736333 0.49060324 2.9069264 0.2014975 0.28076705
0.34266534 4.9064975 3.8380578 3.1636503 5.629814 2.9552975 4.256712 3.2835333
6.6711173 0.327418 0.29624444 4.245093 2.2640502 5.7532673 0.4814218 0.44648084

bias f4 [64]
00000000: 6438 a7bf 9157 c73e 3105 25bf 72a3 47bf
00000010: 7ca3 453f 44df c23f 2761 c63f aec8 3cbf
00000020: 2ce1 4bbf f865 a63f 6a53 2cbf 20b1 26bf
00000030: a7d3 4dbf 4129 0840 8087 89bf eb65 ab3f
00000040: d13c 08bf f387 25bf d145 623f 783d 2e3e
00000050: 688e 33bd f470 34bf d055 35bf b002 153f
00000060: b898 6a3e e981 b3bf 2d54 a53f d786 7e3f
00000070: cb04 a23f 9752 1cc0 9353 3fbf a089 d5bf
00000080: 5ac6 63bf 30ee 423f fe46 1ebf c175 b43f
00000090: a726 ab3f 3399 debd b513 2abf bfda 0fbf
000000a0: fa9a a1bf 1e28 d33f 7597 8abe 4e50 5a3e
000000b0: dd5c 47bf 0f8b fc3f 1628 36bf 8bfd 25bf
000000c0: 9264 47bf 1bcc 94bd 17a3 703f 23f6 a9bf
000000d0: bbc1 c03f 959d 403f 8965 2bbf f1a0 ba3f
000000e0: e29d 813f 6818 03bf 21f5 57bf 2e34 44bf
000000f0: ab58 41bf e488 8f3e 8d26 33bf 43ff 1ebf
-1.3064084 0.38933995 -0.64461046 -0.7798377 0.7720258 1.5224385 1.5498399 -0.7374371
-0.7964046 1.2999868 -0.6731478 -0.6511402 -0.8040108 2.127518 -1.0744476 1.3390478
-0.532178 -0.6466057 0.8838778 0.17015636 -0.04383698 -0.7048485 -0.70834064 0.58207226
0.2290982 -1.402402 1.2916313 0.994245 1.2657713 -2.442541 -0.747369 -1.6682625
-0.88974535 0.76144695 -0.61827075 1.4098436 1.3371171 -0.10869064 -0.6643632 -0.56193155
-1.262542 1.6496618 -0.27068678 0.21319696 -0.77876073 1.9729937 -0.71154916 -0.6484
-0.77887833 -0.072654925 0.93998855 -1.327824 1.5059122 0.7524045 -0.66951805 1.4580365
1.0126307 -0.51209116 -0.8435841 -0.7664212 -0.7552592 0.28034127 -0.699807 -0.6210825

weight f4 [64, 64]
00000000: 4e4e 5e3f 7320 13c0 2f4f 1b40 ee91 3b3d
00000010: d35d 943f 286e 7440 4522 4a3f a872 8ebd
00000020: 43ca 5ebe af66 bfbf 58b0 1ebe 6b67 08be
00000030: e8e4 0ebe 21cd 973f eb8b 47bf 9a83 12bf
00000040: ef8c debe 03da 1f40 512e 753f de14 2940
00000050: 6309 a7bd a89b 41be 309f ea3c d8e5 5dbf
00000060: a055 30bf 47dd c2be a47b 1f40 bcaa 0940
00000070: faa4 3740 71a8 8e40 abdb e13d 4c1c 85c0
00000080: 171e f83e ab03 4e40 4799 913e 18d4 a13e
00000090: bdf6 1040 d172 6840 77b3 f33c 4ce4 bdbe
000000a0: a69f fa3e 436b d13f 10f4 5240 e0a4 8740
000000b0: 11eb 34be 1134 20c0 e0ce e93d e19a a33b
000000c0: 7f0b 1ebd 5aaa 62bf 2bde 2140 65e7 97bf
000000d0: 4dd7 3740 16f2 873f cacc cfbb 32cc 8f40
000000e0: 61d8 4440 aa00 44bd 4aa1 70bc 9996 e13f
000000f0: 76fc 0abf 3a76 8d3e 3328 093f b809 533e
00000100: ec70 0740 8a2d af3e ff5d 103f adbb 2fbd
00000110: 9d9f 4b40 1f04 4640 76be b73f eb8c b2bb
00000120: f81d 933d 1660 a0bf 85ba 043e 74c1 133f
00000130: 26bd 3d3c 8088 cc40 9382 ca3e 692f 01bf
00000140: fa7d 643e 5278 7440 6105 c1be 1b17 963f
00000150: 6f06 1fbd 2378 023e 28db 5c3e 6953 76c0
00000160: e809 3ac0 8442 14bf 15b0 c1be 1293 f0be
00000170: f6ae 6a40 58a4 cd3e dec6 d2be f41a 16c0
00000180: d949 3e40 e9cf 2640 02b3 0b3e 4adf 4740
00000190: 5a24 31c0 3202 a540 6c22 ffbd 3080 8a3f
000001a0: 53ca 3bbf e705 ab3f 8c96 b43f 6812 dd3f
000001b0: d75c 11be 8af3 473f 0b8f 52bd 1aef d6bd
000001c0: 857f d6be d944 fc3f 7e99 6a3f 0c0a 1b3f
000001d0: f78b aa40 32a3 3ec0 6f3a c33f f707 93bf
000001e0: 8793 6b40 53a8 203f 4363 58be e508 3f3f
000001f0: 016f 853e f91f 0540 d9d6 393e 0ae8 42be
00000200: 6d9e 5140 ad99 b0bf bb29 ad3f 5056 323e
00000210: 53e4 57bf ed38 d340 72bb 913d ffdc 8bbf
00000220: bb04 623e ea59 b1c0 a094 0f3e aac2 0dbf
00000230: 1b06 bf3d 3671 cec0 1341 793f aefb 7bbe
00000240: 2559 07bf 4608 a3bf dc1c b9bf eced 2740
00000250: 9e7a 8840 8418 e53e 3276 c4bd 320e 913f
00000260: a2ed 6bc0 ae01 b9bf ae0e 423e 3e00 c03e
00000270: 4336 903f 693b c63e b6e3 31bf fdf9 c8c0
00000280: eb26 79bf f98b 04bf 472d 203f bc00 e5bf
00000290: f28a ad40 e80a 9740 7cf9 09be 5ab3 5240
000002a0: c7df 163f 77c8 1fc0 110e 4abf 1732 7c40
000002b0: 06fc 0c3f 439a c2bf a8fc bbbd ffa2 183d
000002c0: 08cd 083e 9f8e 2dbf cf00 c83f b69e c2bf
000002d0: 21c4 4cc0 840b 003e 73f7 063e 4e90 4c40
000002e0: 2d7c 0541 a580 dc3e a34a 603e 8f0a c13f
000002f0: 60b9 953e eabf 0140 acd5 a3bf 67be 2b3e
00000300: e18f e23f 5f9a a6bf 79b7 9cbf 7e18 ff3e
00000310: dfc1 35c0 840c 883f ea58 11c0 c9c7 26bf
00000320: cb8d b5bd 90cd 8040 c2ce 9a3d 1e18 81be
00000330: 3f50 8b3d e6ec 3640 e3e8 a03e bcd1 a93d
00000340: c91c 7bbe 65d1 8040 fef6 5d40 b795 edbf
00000350: 9b7f 2640 140e 5f3e 8b34 893c a921 0640
00000360: 5c4e 56c0 6fac 5e3e 5ecc c93f bf5d 36c0
00000370: 3cb9 b93f e8e5 3f3c 6482 3f3f 0b35 5440
00000380: aa69 0f40 fe4a 903f 2e2f e8be fc43 4740
00000390: e481 77be 6710 dd3f 731f 82be 9696 01be
000003a0: d53e 853f 4a75 3340 59bc e43f 8ccf 1240
000003b0: 7ffd c63e 4fd7 fc3f b71c 983d 4b61 4f3e
000003c0: 57ac 343d b93c 6840 64db 60bf 76ee 823f
000003d0: 39d8 0540 391c 2abe 234f e73f 9b77 7c40
000003e0: d798 963f 72c1 9dbd 3ef9 bebd 046a 7fc0
000003f0: 09b1 773f 345c d0c0 81b3 6fbe 3698 02bf
0.86838233 -2.2988555 2.426708 0.045793466 1.1591133 3.8192234 0.7895854 -0.06955463
-0.21756844 -1.4953212 -0.15496957 -0.13320701 -0.13954508 1.1859475 -0.7794787 -0.5723206
-0.434669 2.4976814 0.957738 2.6418986 -0.08156087 -0.18907034 0.02864036 -0.8667884
-0.68880653 -0.38059446 2.4919214 2.1510458 2.8694444 4.4580617 0.110282265 -4.159704
0.48460457 3.2189739 0.28437254 0.31607127 2.2650597 3.6320078 0.029748661 -0.3708824
0.48949927 1.6360859 3.2961464 4.2388763 -0.17667796 -2.503178 0.114164114 0.0049928282
-0.038585182 -0.88541186 2.529185 -1.1867491 2.872516 1.0620754 -0.0063415514 4.493676
3.0757067 -0.047852196 -0.014686892 1.7624084 -0.54291475 0.27629262 0.53576964 0.20609176
2.1162672 0.3421443 0.56393427 -0.04290359 3.181617 3.0940015 1.4354999 -0.0054489276
0.071834505 -1.2529323 0.12961777 0.5771706 0.011580741 6.3916626 0.39552745 -0.5046297
0.22313681 3.8198438 -0.37699416 1.1725801 -0.038824495 0.12741141 0.21567976 -3.848841
-2.9068546 -0.57913995 -0.37829652 -0.46987206 3.6669288 0.40164447 -0.4116735 -2.345395
2.9732573 2.6064398 0.13642505 3.1230035 -2.7678437 5.156518 -0.12457737 1.082037
-0.733556 1.3361176 1.4108443 1.7271242 -0.14195572 0.78105986 -0.051405948 -0.10494824
-0.41894165 1.9708511 0.9164046 0.60562205 5.3295856 -2.9787107 1.5252208 -1.1486806
3.6808794 0.6275684 -0.21131615 0.74622947 0.26061252 2.0800765 0.18148364 -0.19033828
3.2752945 -1.3796898 1.352836 0.17415738 -0.8433277 6.600699 0.071158305 -1.0926818
0.22072117 -5.542226 0.1402154 -0.5537516 0.093273364 -6.4513197 0.9736492 -0.24607727
-0.528704 -1.27369 -1.4461932 2.6238966 4.264968 0.44745266 -0.095928565 1.1332457
-3.686379 -1.4453638 0.18950912 0.37500185 1.1266559 0.387172 -0.69488084 -6.280516
-0.9732501 -0.5177608 0.6256909 -1.7890849 5.423211 4.7200813 -0.13474077 3.2921968
0.5893521 -2.4966104 -0.78927714 3.9405572 0.5507206 -1.5203327 -0.0917905 0.03726482
0.13359463 -0.6779575 1.5625247 -1.5204685 -3.1994708 0.12504393 0.13180332 3.1963077
8.342816 0.43066898 0.21903472 1.5081347 0.29242992 2.0273385 -1.2799582 0.16771851
1.7700158 -1.301586 -1.2243491 0.49823374 -2.839958 1.062882 -2.271052 -0.651486
-0.088649355 4.025093 0.07558967 -0.25213712 0.06802415 2.8582091 0.31427678 0.08291957
-0.245227 4.025561 3.4682002 -1.8561314 2.6015384 0.21782714 0.016748687 2.0958045
-3.3485327 0.21745466 1.5765493 -2.8494718 1.4509654 0.011712529 0.74808335 3.3157375
2.2408242 1.1272886 -0.45348495 3.1135244 -0.24170643 1.7270631 -0.2541462 -0.126551
1.04098 2.8040338 1.7869979 2.2939177 0.38865277 1.9753207 0.07427352 0.20251958
0.04410967 3.6287062 -0.87834764 1.0229023 2.0913222 -0.16612329 1.8071026 3.9448001
1.1765393 -0.077029124 -0.09324883 -3.9908457 0.9675451 -6.5112553 -0.23408319 -0.51013505

bias f4 [64]
00000000: 4cfc fd3f 3acd 01be 8bff 0040 c7db d13e
00000010: 718b e53f d58e 1b40 b313 57bd cd35 193f
00000020: 964a f33f 0751 373e b566 3dbe ca70 e33f
00000030: 9f7c fb3f 695f 2b40 7c52 dd3f 167c c73f
00000040: 0be4 8f3e fc7c e53f ce5e 223f d338 0e40
00000050: a9fe 933f 8f1c dd3f 9ed6 fa3f 31a4 dd3f
00000060: 9986 06bf bb67 f53f 0740 8ebe 4708 e13f
00000070: 06d4 bc3f 04a3 4d3f 43d3 463f 76cf 6d3f
00000080: 14c8 0440 365c 9a3f 5067 633f 2837 0640
00000090: c239 9e3f 8e49 a03f 24cd fd3f 8440 7e3f
000000a0: 59b1 0140 2364 f73f 0d32 dd3f 1389 b8bd
000000b0: 701d 38bf d51d e93f 03e3 1240 854d 233f
000000c0: 2f3b e33f d676 a73f 9a73 853f f5f1 ba3f
000000d0: dce5 0140 83ab 0040 755d 983f af37 e33f
000000e0: dd84 883f 1cd0 c83f 521c eb3f bff8 df3f
000000f0: 4855 d63f de3c c83f a1da f33d 162f a6bc
1.984262 -0.12675944 2.015597 0.4098799 1.7933179 2.4305928 -0.05250902 0.5984772
1.9007137 0.17902003 -0.18496211 1.7768795 1.9647406 2.6776984 1.7290797 1.5584743
0.2810367 1.7928767 0.6342591 2.2222183 1.1562091 1.727434 1.9596746 1.7315732
-0.5254913 1.9172281 -0.27783224 1.7580651 1.4752204 0.8032687 0.7766611 0.92894685
2.0747118 1.205939 0.8882952 2.0971165 1.2361376 1.2522447 1.9828229 0.99317193
2.0264494 1.9327434 1.7280899 -0.0901052 -0.7191992 1.8212229 2.2951057 0.6379016
1.7752436 1.3083141 1.0425904 1.460509 2.0296545 2.0104682 1.1903521 1.7751368
1.0665547 1.568851 1.8368018 1.7497786 1.6744776 1.5643575 0.119069345 -0.020286124

weight f4 [64]
00000000: 4cc6 053f 378c 7c40 3f04 ad40 3779 c640
00000010: a3be b23e 4961 3240 824a 5e40 b1f3 0241
00000020: 312e af3e e4c6 a740 5b30 6e40 0e9f 9840
00000030: d4c5 423e 107b 7640 2ee8 333f bc5d ee3e
00000040: ef48 9740 4071 7c3e a1c2 7d40 e735 df3e
00000050: 18b3 8140 8311 fd3e ea12 9e3e 71c9 113f
00000060: 369b 3640 9bdd ed3e 5702 c440 f4ae c43e
00000070: 6a9a 8640 e21f ea40 1a02 f63f fe46 6840
00000080: 1b41 963e 8d51 0c41 7ca3 8f40 3d19 ae3e
00000090: b621 9640 21f1 8c40 0a13 1a40 aa6e 4d40
000000a0: b01c fb3e d9a7 243f c5af aa3e 6aa6 b140
000000b0: 699a 9e40 5f7c 943e 91c0 e33e cb01 a13f
000000c0: 41ba a140 de80 2b40 a53f 6940 eec2 e440
000000d0: 8aad 3540 0e15 c63d 58a5 553e 8bab b33e
000000e0: 88c5 9f40 a7a0 003f cccc de3e 167b 1c40
000000f0: 6e1c 1e3f 1a4d 2e3f 8b7b 4540 7690 1940
0.522557 3.946058 5.4067683 6.2022967 0.3491107 2.7871878 3.4732976 8.184495
0.3421493 5.2430286 3.7217014 4.769416 0.19020778 3.8512611 0.70276153 0.4655589
4.727653 0.24652576 3.9650042 0.43595812 4.053112 0.49427423 0.30873805 0.56948
2.8532233 0.46458134 6.1252856 0.3841473 4.2063494 7.316392 1.9219391 3.629333
0.29346547 8.76991 4.4887066 0.3400363 4.691615 4.4044347 2.407412 3.2098794
0.49045324 0.64318615 0.33337227 5.551564 4.956349 0.29001138 0.44482854 1.2578672
5.053986 2.6797404 3.6445096 7.148795 2.838717 0.096719846 0.20863855 0.35091814
4.9928627 0.50245136 0.43515623 2.4450126 0.6176213 0.680864 3.0856655 2.3994422

bias f4 [64]
00000000: 54b3 3ebf b4fd acbf 4770 b03f 9453 4fbe
00000010: b36a 73bf 3521 ec3f d5c7 debf b5a2 063f
00000020: a233 5cbf 9006 b0bf d7ba 733f 8775 643f
00000030: 1fd9 50bf c05c 2140 19ac 8fbf 429c 8ebf
00000040: cda1 8ebe f8f2 32bf 3229 6dbf 9c82 28bf
00000050: 466b 8c3f ed97 5cbf f2c9 3fbf 8135 44bf
00000060: fbe5 c7bf 2e9d 2bbf 3872 6abf e786 81bf
00000070: 85c7 c3be 432b b2be acc9 e83e 3b70 963e
00000080: 307e 09bf ae90 943c ba77 593f b850 0ebf
00000090: 286b 96bf 1e87 b7bf 0737 e6bf 6420 a73d
000000a0: 2ea2 2abf 9409 7dbf 4023 4cbf ff97 66be
000000b0: 325c ddbe 3fb6 48bf f573 40bf 68d9 02c0
000000c0: 0671 cdbd b6f3 1140 61c4 e63f ecdd 313f
000000d0: 993e bc3f 3223 b9be 4f8a cb3f 56db 41bf
000000e0: dd28 ba3e 229c 8abf b9dc 5bbf 9195 0a40
000000f0: d537 73bf d1f3 96bf 185f 82be 5a7b 6a3f
-0.74492383 -1.3514924 1.3784264 -0.20246726 -0.95084685 1.8447634 -1.7404734 0.5259202
-0.86016285 -1.3752003 0.9520697 0.8924183 -0.815813 2.521286 -1.1224395 -1.1141436
-0.2785782 -0.6990199 -0.92640984 -0.65824294 1.0970237 -0.8616932 -0.7491752 -0.7664414
-1.561706 -0.6703671 -0.91580534 -1.0119294 -0.3823816 -0.3479863 0.45466363 0.293825
-0.5370817 0.018135395 0.84948313 -0.5559192 -1.1751451 -1.433811 -1.7985543 0.08160475
-0.66653717 -0.9884274 -0.7974129 -0.2251892 -0.43234402 -0.78403085 -0.75176936 -2.0445194
-0.10031323 2.2805 1.802868 0.6947925 1.4706603 -0.36159664 1.5901583 -0.75725305
0.363593 -1.0828898 -0.8588367 2.1653788 -0.9500707 -1.1793157 -0.25463176 0.9159447

weight f4 [64, 64]
00000000: 5261 49be 4219 8240 4522 0340 f648 c33e
00000010: 3afa 203c 395e bf3d ffec 0e3f 99f5 d83f
00000020: 3ab8 c5be 89d0 d6bf 6fea 8d40 4cd7 ab3e
00000030: 102e 82bd c57b 453f 1d8f 073e 08cc 6c3f
00000040: 1933 eabf 0c58 203c ebc8 5440 b5e0 df3e
00000050: 2b44 2b40 1e44 143e 3620 063f 7dbf 6c3d
00000060: a9c3 c03e 60b9 dc3e c0d6 b740 a8e7 bebe
00000070: f1cf 8c40 6ab3 8dc0 9751 d83f 13bf 04bf
00000080: c54a 6abe f957 3940 8de0 1540 f5ed a63c
00000090: 138f 7340 80aa a93f a932 cd3a ef8e 9040
000000a0: 4391 e2be 82e7 8bbd c034 5ebd 3d44 14bf
000000b0: aabd 993f 979c 03be ce77 903f ec71 f13e
000000c0: cd75 05bf bca3 6e40 473a bebe a0e5 8c3f
000000d0: 91e2 3d40 843b 29bd 1a3e 943f 2314 d53d
000000e0: 1741 4d3f 11a5 723f 6571 cebd 54b0 4d3f
000000f0: 20d2 0c3e af14 4e3f 4dca 7740 072c 9640
00000100: 1baf 28bd cd30 35c0 61d5 0340 7214 69c0
00000110: f003 243f 9ec3 96bf be96 a1bf 7200 6e40
00000120: 053c d83e b02d 86c0 f02b 1e40 c7b0 ac3f
00000130: aa6c a83d 9f52 4840 1bfd 273f 4117 173f
00000140: 8df4 5a40 88df d5bd 4fd5 3c40 6595 c13d
00000150: c547 36bf a48f c2bb 1fa5 9dbf f0f3 05bd
00000160: 3f1b 9bbf 71a8 903f c624 bd40 4bf4 773e
00000170: ea2d 87bf 5986 0c40 7ee1 53bf 646e 6f40
00000180: df70 9cbe a84b 39c0 e304 83be 323f 853e
00000190: 060f aac0 ddb1 53c0 4ee5 bdbf 2855 d23f
000001a0: 13ec ba3e a6a5 37bd 5350 833e 0a27 4fc0
000001b0: 1b66 4bc0 1159 8cbd 77c6 0bbe f1a6 623f
000001c0: 2608 5040 96fc 23c0 30fd 4e40 dafd 05c1
000001d0: 43dc 933e 9edb bdbf 5fe8 7240 9d79 a43e
000001e0: b58e 2740 a680 c13e 656d 8e3c c22b a93f
000001f0: 7c5d 1b3e aa6d b9be 0cbb 4340 32b0 0bc0
00000200: 11b6 c63c 7d41 5840 1b6e fa3f 49e3 1e3e
00000210: 467e 69bd e101 353e c954 163f 6413 f33f
00000220: bee3 bcbe ec71 a5bf 50c4 8b40 8713 bb3e
00000230: 430c fcbd 2f93 fb3e 6507 983e f9e7 993e
00000240: c071 b3bf 3982 e6bd a536 6240 3e04 d93e
00000250: 3d82 2140 297b 1e3e 3b87 1e3f 7f4f e73e
00000260: 5c32 0d3f 2117 803e b2f7 b940 f918 8ebe
00000270: 4ff3 8c40 6158 8ac0 d50a dd3f f9e9 cfbe
00000280: ac76 c8bd 45d4 4040 4cb2 1f40 6afc 84bd
00000290: 3268 7c40 f49b cd3f 5462 373e 5546 9340
000002a0: 8ebd 0cbf dfb6 d33e dc49 8cbe d58c 3abf
000002b0: dd2f bd3f be75 fcbd 53a8 6f3f 508b a03e
000002c0: 112f 35bf de82 6c40 3dfb eebe 338f d03f
000002d0: f436 4040 a780 78be e82a aa3f f6c4 dcbd
000002e0: 4969 953f 5981 743f 3548 68bd 6960 433f
000002f0: 9c5c 6a3e ae52 4c3f 8362 8040 96ab 9a40
00000300: f0a1 f63e 2cd4 5140 3167 cf3f e4b6 63c0
00000310: c6e4 47be f619 003f 4fb4 cc3f d88e a43f
00000320: 4d3b ba3c 3a63 db3f 5afa 0340 d73f 00c0
00000330: a989 513e 1cbf 8bbe 61cd 90be 897e 14be
00000340: cf82 30be 2cf1 273e 2d0c 2a40 2115 f03e
00000350: d6e9 4f40 fd3f 033f 6b7f dbbd bfce 043f
00000360: 202e 0240 8656 32bf 83e8 5f40 1755 7f3d
00000370: b431 7b40 8808 92c0 8885 863e 8f8e 92c0
00000380: 334a 933c b35a 16bf d713 403f af97 a03d
00000390: 3c24 e83e 49c5 1440 2938 1a40 b8e9 0740
000003a0: 6e05 163f 4ba7 373e 3326 173e 47ee bc40
000003b0: 9153 5f40 42c1 843d 37ee bcbe 7051 c6bf
000003c0: 1b2b 9ac0 02dc ab3f 3123 adbe 7607 7840
000003d0: e796 d93f 4ebb 17be d93c 933e 6573 cd3d
000003e0: 0e38 a13f 5d58 603f f791 033d 204f 0240
000003f0: 8ddd 503f 3ce0 7d3f 5885 8c40 bd24 7b40
-0.19666031 4.065583 2.0489666 0.38141602 0.009825284 0.093441434 0.5583038 1.694995
-0.38617116 -1.678239 4.4348674 0.33562696 -0.06356442 0.7714198 0.13238187 0.92498827
-1.8296844 0.009786617 3.324763 0.43726125 2.6760356 0.1447911 0.523929 0.057799805
0.37649277 0.4311018 5.7449646 -0.37286115 4.4003835 -4.428151 1.6899899 -0.51854056
-0.22880085 2.8959944 2.3418305 0.020377139 3.8056076 1.3255157 0.0015655357 4.517448
-0.4425145 -0.06831266 -0.054249525 -0.57916623 1.2011006 -0.12852703 1.1286561 0.47157228
-0.52132875 3.7287436 -0.37153837 1.1007576 2.9669535 -0.041316524 1.1581452 0.104042314
0.80177444 0.9478312 -0.10080222 0.8034718 0.13752031 0.8050031 3.8717225 4.6928744
-0.04118262 -2.8311036 2.0598986 -3.641873 0.6406851 -1.1778448 -1.2624128 3.7187772
0.4223329 -4.193077 2.4714317 1.3491448 0.08223851 3.1300428 0.65620583 0.5901986
3.4211762 -0.10443026 2.9505193 0.09452323 -0.7120326 -0.0059375335 -1.2316016 -0.03270334
-1.211769 1.1301404 5.910739 0.24214284 -1.0560887 2.1957 -0.8276595 3.7411127
-0.30554864 -2.8952427 -0.25589666 0.26024777 -5.314334 -3.307731 -1.4835603 1.6432238
0.36508235 -0.04483571 0.2564722 -3.2367578 -3.178107 -0.068529256 -0.13649927 0.8853598
3.2504973 -2.5622916 3.2342033 -8.3744755 0.28878984 -1.4832647 3.7954328 0.32124034
2.6180851 0.37793463 0.017386148 1.3216479 0.1517238 -0.3621648 3.0582914 -2.182629
0.024256738 3.378997 1.9564852 0.1551639 -0.05700519 0.17676498 0.5872312 1.8990293
-0.36892503 -1.2925391 4.367714 0.36538336 -0.12307026 0.4913573 0.29693142 0.30059794
-1.4019089 -0.11255307 3.5345852 0.4238605 2.523574 0.1547667 0.61925095 0.45177838
0.5515497 0.25017646 5.8114862 -0.27753428 4.4047008 -4.3232884 1.7268931 -0.40608194
-0.0978826 3.012956 2.4952574 -0.06493457 3.9438596 1.6063218 0.17908603 4.6023355
-0.5497674 0.41350457 -0.274001 -0.7287114 1.4780232 -0.12327145 0.9361622 0.31356287
-0.7077494 3.6954875 -0.46676055 1.6293701 3.003354 -0.24267827 1.3294344 -0.10779755
1.1672755 0.9550987 -0.056709487 0.76318985 0.2288689 0.7981366 4.0120254 4.8334455
0.48170424 3.278575 1.6203367 -3.5580378 -0.19520864 0.50039613 1.5992526 1.2856092
0.022733355 1.7139657 2.0621552 -2.0038965 0.2046267 -0.27294242 -0.28281692 -0.14501394
-0.172374 0.16400594 2.6569932 0.4689112 3.2486472 0.51269513 -0.107176624 0.5187797
2.0340652 -0.69663274 3.4985664 0.062337007 3.9249086 -4.5635414 0.2627375 -4.579902
0.017979717 -0.58732146 0.75030273 0.07841431 0.45340145 2.3245413 2.4096777 2.12364
0.58602035 0.17934911 0.14760666 5.9040866 3.4894755 0.064821735 -0.36900494 -1.5493603
-4.817762 1.3426516 -0.3381591 3.8754554 1.6999177 -0.14817545 0.2875736 0.100317754
1.2595232 0.8763483 0.032121625 2.0360794 0.8158806 0.9917028 4.3912773 3.9241173

bias f4 [64]
00000000: e957 de3f 6aa4 cc3f e839 d63f df46 aa3e
00000010: 0006 6f3f 9e2a 59bd bd81 44bf eca3 e63f
00000020: e11e e33f b51c c63f a5a6 bebd 8f56 bebe
00000030: 2477 89bf 7400 d03f 468b 163f db05 e73f
00000040: 0fd6 3640 b8bb c4be 2afb 7c3f b084 c83f
00000050: bd12 a63d 6a1f e83f c0d8 e33f 37d9 e33f
00000060: 85ec b6bd 72c8 d73f a2ba ea3f 5ec9 923f
00000070: 000b 883e a96b e03f fa3b 923e 49ef 7dbc
00000080: 35fd e33f d84e 8ebe 4ba5 8c3f de6e 4740
00000090: 81ba 523f d6b9 d83f 3266 e93f deaa a23f
000000a0: 3b79 c53f c560 3940 caba e03f 9c32 fe3f
000000b0: 8d21 f43f 78aa b83f 074f 49be 742e d83f
000000c0: d318 653d d73d ec3f c2ee 723e 805e f43f
000000d0: bfda eb3f 8fb0 413f 0e14 f43f ccca 25be
000000e0: 6812 ed3f 4a6a fd3f 4f81 f43f d05f 353f
000000f0: 309e bd3f 01bb f13f 9683 193f aa2f 2f3f
1.7370578 1.5987675 1.6736422 0.33257195 0.9336853 -0.05301916 -0.76760465 1.8018775
1.7743798 1.5477511 -0.09309129 -0.37175414 -1.0739484 1.6250138 0.58806264 1.8048662
2.856815 -0.38424468 0.98820746 1.5665493 0.08109043 1.8134587 1.7800522 1.7800664
-0.08931831 1.6858046 1.8338206 1.1467702 0.26570892 1.7532855 0.28561383 -0.015498945
1.7811648 -0.27794528 1.0987943 3.1161418 0.8231583 1.6931713 1.8234313 1.2708395
1.5427622 2.8965313 1.7557003 1.9859195 1.9072739 1.4427023 -0.19659053 1.6889176
0.055931877 1.8456372 0.23723891 1.9091339 1.8426131 0.7566003 1.906862 -0.16190642
1.8521242 1.9798062 1.9101962 0.70849323 1.48139 1.8885194 0.5996641 0.68432105

weight f4 [64]
00000000: 2c4f af3e fbe6 9840 1071 c63e db21 853f
00000010: a726 603f 8fb1 2541 2799 b840 f4af d33e
00000020: 8cbc ea3e adc0 fa40 ba48 0741 7637 b240
00000030: 0ee2 7340 b168 f13e eac4 aa40 4b2b 183e
00000040: 564b b940 8b72 4040 4bcb be40 d4d8 e53e
00000050: 148a a740 854f 053f 0d68 953e fdc7 763e
00000060: 88cc 8140 96ba aa3e b6cc e43e 8881 a33f
00000070: 0e0e 6640 a8db d13e 69e7 8f40 9def e540
00000080: 2d4f 123e f04e 0541 7921 ae40 4066 2740
00000090: 66ae f340 88f5 a240 1d26 6440 1a97 8840
000000a0: ea2b bc3e b42e 5d40 4017 023f 15c2 9b3e
000000b0: 8943 893e 3604 9340 7152 e740 6ffe da3e
000000c0: 0332 a840 bb34 bb3e 94aa 8440 4d24 8e3e
000000d0: 5027 5e3e 7520 9940 65a7 d23e a548 1740
000000e0: dbef c03e 5886 9840 9abf a93e f9dd 7f40
000000f0: e99e 7640 2123 3940 41dc a73f 4807 d240
0.3424009 4.778196 0.38758135 1.0400957 0.8755898 10.355849 5.7686954 0.4134518
0.45846975 7.83602 8.4552555 5.56927 3.8106723 0.47150186 5.3365374 0.14860265
5.7904463 3.0069911 5.962316 0.4489199 5.2356052 0.5207446 0.29180947 0.24099727
4.056217 0.3334548 0.44687432 1.2773905 3.5946078 0.40987897 4.4969983 7.1854997
0.14288016 8.331772 5.441586 2.6156158 7.615039 5.092472 3.5648263 4.268445
0.36752254 3.4559755 0.50816727 0.3042151 0.26809338 4.594264 7.2288136 0.42772242
5.256105 0.36563668 4.1458225 0.2776207 0.21694684 4.785212 0.41143337 2.3638089
0.37682995 4.7663994 0.33153993 3.9979231 3.853449 2.892769 1.3114091 6.563389

bias f4 [64]
00000000: bd81 36bf 5403 3d3f 42c7 50bf 181d 0bc0
00000010: d1b7 e9bf 219c 4b3e 053f 35bf db2d 47bf
00000020: 7964 2abf 40fd 823e 005c 41be 85e3 383d
00000030: 1df8 31bf 0ebe 68bf 4dd3 ae3e 4657 cebe
00000040: 6d04 1840 fa1d edbf 78e1 1fbf 4b62 3ebf
00000050: 7ebb c23e 87c5 4fbf abce 30bf 81a0 2cbf
00000060: 6360 4cbf 65a8 0abf 2344 2abf 395d 1ec0
00000070: 8ad0 f6bd 9150 25bf 1586 b7bd 31cd 403f
00000080: 0ed4 63be 3c5c 773d 74f9 103f 6456 2840
00000090: d009 c43e 9a8c ba3f 6ccf 7d3f 5a3d e83e
000000a0: bf4b 48bf a185 b33f e346 2dbf 461d 5fbf
000000b0: 76dc fcbe cc02 5b3f 69b2 2ebf f9a3 82bf
000000c0: 29bd 78bf 104d 41bf e2c1 093f 002a 2ebf
000000d0: b0d0 24bf bce5 903e 831c 34bf 4809 393f
000000e0: ee05 46bf 4f69 d83f c3ed 0abf 7d37 523f
000000f0: 274d ad3f bc31 d93f 0493 06c0 ce48 c03e
-0.71291715 0.73833203 -0.81554043 -2.1736507 -1.8259221 0.19883777 -0.70799285 -0.77804345
-0.6655956 0.2558384 -0.18882751 0.045138855 -0.69519216 -0.90915 0.34145585 -0.4030096
2.3752701 -1.8524773 -0.62453413 -0.74368733 0.3803367 -0.8116078 -0.6906535 -0.6743241
-0.79834574 -0.541632 -0.6651022 -2.4744399 -0.120514944 -0.6457606 -0.08961121 0.753131
-0.22248861 0.060390696 0.56630635 2.6302729 0.38288736 1.4574158 0.99144626 0.45359308
-0.7824058 1.4025155 -0.6768629 -0.8715404 -0.49386948 0.8555114 -0.6824098 -1.020629
-0.97163635 -0.75508213 0.53811467 -0.68032837 -0.6438093 0.28300273 -0.70356005 0.7227979
-0.773528 1.6907138 -0.54269046 0.8211592 1.353917 1.6968303 -2.1027231 0.37555546

weight f4 [64, 64]
00000000: ab08 433e 0ecf 0b40 d5e7 383e ef48 2c40
00000010: 969e 5f3f a685 71bf e3f6 82bf 0f3f 093e
00000020: c519 663e 3785 0040 79a0 80c0 2b2c 16c0
00000030: 790e 8d40 6318 fc3d f658 91bf e023 f0bd
00000040: f8f0 033e 7594 3340 d812 3340 7bfe a53e
00000050: fa9d 233f 3d0b 9e3e 5e54 c1bc ee82 ec3d
00000060: 7c92 6d3d 7ded e3be 9050 4d3e d9ff 083f
00000070: 256b 5140 758b 3abe 9d97 1240 1dd5 ebbf
00000080: e4c0 383d a49d 47bd 0231 4540 70ec 1940
00000090: 8199 8040 93e3 9140 1864 4440 b79d 9e40
000000a0: 676b e63e 09f9 ef3f ad67 fa3d 3a7b b8bd
000000b0: 7ded c83d 9692 5440 2634 95bf 7d95 63be
000000c0: 238b 1ec0 2203 3b3e cff1 2d40 46f0 41be
000000d0: ce54 c03c 19dc 9140 2c14 35be 3f04 c63e
000000e0: a8fe 4c3e af9c a33f 94c0 423e 0bb9 8b40
000000f0: ed1d 5540 8b93 f03f 6bc5 4e40 7223 ba40
00000100: 58b0 6dbe 4874 65c0 7139 0c3e be29 45c0
00000110: d6bc 833f ceaf 9040 af01 5640 4563 a23b
00000120: cf53 86be 6081 4040 28ee b5c0 8fec ad40
00000130: ab7a 9f40 75c3 1e3f 0b18 fc3f 96eb 40bc
00000140: 1042 a0c0 0ae7 8d3e dddb 413f 7d67 d83e
00000150: 38f1 36c0 833a 80be b778 98bd cf90 68bd
00000160: 1c73 77bf 5208 c0bd fff0 263f 9a61 013f
00000170: 32b4 e340 732b e0bd 6ae7 ad40 4701 91c0
00000180: 859a 5dbf 7d50 163f fe22 5fc0 e574 09c0
00000190: 7b89 c83e 539c f6bf 3e1f 2cc0 7ec7 f6bf
000001a0: 6527 693e a9b2 04c0 900f 8c3e 613a 90be
000001b0: b80b 1fbe 1347 a8c0 df6e 3dc0 08c3 cfbe
000001c0: 3268 c23f 0f45 643e c8de 7ac0 9e61 8b3f
000001d0: 19e3 d23c 9a79 e1be 9d48 66bd c5da ac3f
000001e0: 1772 513d 8f88 88bf 212e ac3e 6306 a7bf
000001f0: 93dc 5cbf 68db e83f 3295 883f 23ed f93e
00000200: 49a6 903e 2849 a640 df0e a53e a393 e03f
00000210: 6d2d 083f ca02 83c0 00db 09c0 4933 543e
00000220: 928e 253d 7662 a03f c1d6 e8bf 9142 2fc0
00000230: 7904 6240 b771 053f 99ce ccbf a38a 8fbd
00000240: 1ef1 e53f c8f9 0840 baff 363f a198 3ebe
00000250: 74b9 3f40 7db6 c23e 6a0a 7b3c 5854 c83d
00000260: c42b 403f 97b6 033e e8fc 0dbe b82b 55bf
00000270: 7fce ff3d aa07 6cbe fdcf 623f a572 02bf
00000280: 7e61 703e 14c5 1fbf 406b 9740 87ca 7540
00000290: 292b 9640 8d24 7c40 9847 9740 dce4 a940
000002a0: 2546 ba3d df18 5340 faa6 da3e 6eff 61be
000002b0: c31d 933e 82dc c840 c3a4 3b3e 40ec 083e
000002c0: 9ba9 61c0 cf2b 623e e734 ab40 55b6 6a3f
000002d0: 20bc 593e 950b d640 f91f 863e f9dd 053f
000002e0: bd80 2e3e a27e a53f cd0c df3e 629d d340
000002f0: 97d4 9d40 cd5e 593f c2f8 1a40 f27d 8c40
00000300: 308d 02bc 9077 c040 dfc8 153e bf71 d33f
00000310: 1aa3 013e 65bf aac0 c857 e0bf 8009 453e
00000320: 2d1a 2f3e 032c d23f c384 03c0 fbad 37c0
00000330: ca5f 5140 5ca8 a3bc 4c0d b0bf 406d 043e
00000340: b91e 1f40 c849 fa3f 7b52 103f c4a4 a3be
00000350: 44b0 7040 eebd ef3e 930b 3c3d d34f 003a
00000360: ab71 a83f 653e 0fbd e351 393e 0610 07c0
00000370: 18f5 18c0 dcb1 75be 5e50 08be 6085 a53e
00000380: 9900 1b3f ccb1 2dbe d068 9e40 e0a8 8c40
00000390: 2204 b340 9c8b 8f40 6a5e b040 75c0 c940
000003a0: 9ab7 12be cd62 6d40 9926 e63e 0e0a 1f3e
000003b0: 9f70 3a3d 852c be40 6f9d 693f 477c 453f
000003c0: 5f5d 7ec0 36be 263c ac81 d040 7af9 91be
000003d0: 9c09 4b3d 0310 e040 1da0 173e f1da f1bc
000003e0: d8bf c53d a351 8c3f ea52 993e 1260 f440
000003f0: f52a bb40 d0ad 063f c9e6 3540 3746 8840
0.19046275 2.1845126 0.18057187 2.6919515 0.8735136 -0.94344556 -1.0231594 0.13402961
0.22470768 2.0081308 -4.019589 -2.3464458 4.4080167 0.12309339 -1.1355274 -0.117255926
0.12884891 2.805936 2.7980251 0.32420716 0.6391293 0.3086795 -0.0235998 0.1154841
0.058001027 -0.44517127 0.20050263 0.5351539 3.2721646 -0.18217261 2.2905037 -1.8424412
0.04510583 -0.048734322 3.0811162 2.405056 4.0187383 4.55903 3.0686092 4.9567523
0.45003816 1.8747874 0.12226806 -0.090078786 0.09810922 3.321447 -1.165654 -0.22224994
-2.4772422 0.18262914 2.7178838 -0.18939313 0.023477938 4.5581174 -0.17683476 0.38675115
0.20019019 1.2782191 0.19018775 4.3663383 3.3299515 1.8795027 3.2307994 5.816827
-0.23211801 -3.5852222 0.13693787 -3.0806727 1.0292003 4.5214605 3.3438528 0.0049556815
-0.26235816 3.0078964 -5.685322 5.435127 4.983724 0.62016994 1.9694837 -0.011774918
-5.0080643 0.2771533 0.7572611 0.42266455 -2.8584728 -0.2504464 -0.074448995 -0.056778725
-0.9666002 -0.09376587 0.6521148 0.50539553 7.1157465 -0.10945787 5.434499 -4.531406
-0.86563903 0.58716565 -3.4865108 -2.1477597 0.3916739 -1.9266456 -2.6894069 -1.927963
0.22768934 -2.0734046 0.27355623 -0.2816954 -0.15531814 -5.258676 -2.959892 -0.40578485
1.5188048 0.22291969 -3.9198475 1.0889165 0.025743054 -0.44038087 -0.056221593 1.3504263
0.051134195 -1.0666674 0.33628944 -1.3048824 -0.8627407 1.8191957 1.0670531 0.48813733
0.28251866 5.19643 0.32237908 1.7545055 0.53194314 -4.0940905 -2.1539917 0.20722689
0.04041917 1.2530048 -1.8190538 -2.738438 3.531523 0.5212664 -1.6000549 -0.07008865
1.7964208 2.1402454 0.7148396 -0.18612911 2.9956942 0.38029853 0.015322307 0.09781712
0.7506678 0.12862621 -0.13866007 -0.83269835 0.12490558 -0.23049799 0.88598615 -0.50956184
0.2347469 -0.6241009 4.731842 3.8404863 4.6927686 3.939731 4.7274895 5.309187
0.0909541 3.298393 0.42705518 -0.22070095 0.28733644 6.2769175 0.1832457 0.13371372
-3.525977 0.22087024 5.350208 0.91684467 0.2126317 6.688914 0.26196268 0.5229183
0.17041297 1.292927 0.43564454 6.612962 4.932201 0.8491028 2.421433 4.390374
-0.007968232 6.014595 0.14627407 1.6519088 0.12659875 -5.3358636 -1.7526789 0.19241905
0.17099829 1.6419681 -2.0549781 -2.869994 3.2714715 -0.019977741 -1.3754058 0.129323
2.4862502 1.9553766 0.56375855 -0.31961644 3.7607584 0.46824592 0.045909476 0.0004894707
1.3159689 -0.034971613 0.18097644 -2.110353 -2.3899593 -0.23993629 -0.13311908 0.3232832
0.60547787 -0.16962355 4.9502945 4.3956146 5.5942545 4.485792 5.511525 6.3047433
-0.14327851 3.7091553 0.44951323 0.1553118 0.04551756 5.9429345 0.9125585 0.7714276
-3.974449 0.010177186 6.515829 -0.28510648 0.04956971 7.0019546 0.14807172 -0.029523345
0.09655732 1.0962414 0.2994607 7.6367273 5.848994 0.52608967 2.842211 4.258571

bias f4 [64]
00000000: 2a18 1f40 4334 0440 16e9 1d40 35cf 3040
00000010: 9fd2 0240 48b7 0240 7fdd 1a40 924f 4740
00000020: d2f8 1b40 99d0 2e40 587a 0440 6806 cf3f
00000030: 498e 3440 ebf6 2340 c438 ffbe f346 6440
00000040: 2b71 2340 1390 2f40 711e 903f 07a6 1540
00000050: 5c3b 3a40 22c2 2540 80e2 2940 6205 1340
00000060: 5269 2940 6c0d 3040 deec 2140 523c 1340
00000070: 49fe 1c40 6fa4 0640 2dd4 1540 e6cd 0340
00000080: abb9 d03f 3791 0b40 cb0a 1b40 62af 273f
00000090: 6f88 1840 c21e 1f3f 5e33 4e40 996f 2640
000000a0: 679a 3840 065e 1c40 70be 1a40 822b e73f
000000b0: 8a3e 0140 a57b 2c40 8ab9 b13f 77a6 df3e
000000c0: 1507 2640 eed1 1540 1200 2640 4788 f63f
000000d0: cc4d 2340 a77c 1e40 e319 1040 8699 3040
000000e0: 5892 0c40 66f2 3540 3f6e de3f 42af a33f
000000f0: ef14 2f40 b72b 1340 198b 3140 478a 1840
2.4858499 2.0656898 2.4673514 2.762647 2.0441053 2.0424366 2.419769 3.1142316
2.4370618 2.7314818 2.0699673 1.617383 2.8211844 2.5619457 -0.49847996 3.5668304
2.5537822 2.7431686 1.125929 2.3382585 2.909873 2.589974 2.6544495 2.2972035
2.6470532 2.7508192 2.5300822 2.3005567 2.4530203 2.1037862 2.3410752 2.059442
1.6306661 2.1807382 2.4225338 0.6550199 2.3833272 0.6215631 3.2218852 2.6005614
2.884424 2.4432387 2.4178734 1.8060153 2.019442 2.6950467 1.3884747 0.4368169
2.5941823 2.340938 2.5937543 1.9260339 2.5516233 2.4763582 2.25158 2.7593703
2.196432 2.8429198 1.7377394 1.278786 2.7356527 2.2995431 2.7741148 2.3834398

weight f4 [64]
00000000: 5250 253e e587 3140 a716 3a3e 33d4 4b3e
00000010: bda0 c93e d49c 553f 1e97 d03f 74e8 213f
00000020: bd52 c43e 6492 d43f 307b 8f3e 4386 3b3f
00000030: 6525 a33d ac4d bb3e dd7d ca3f 1da5 223e
00000040: d681 013f cfa6 a83f aea9 4b3f dfd3 a23e
00000050: 5319 ae3e 6ebd 293f 1303 9f3e 3afe ad3e
00000060: bced da3f 03a7 993e a4ca ae3e 6766 d93e
00000070: f568 d63e 8fcb 0a3d cbd6 b33f 7930 8b3e
00000080: ed71 123e 9e7b f43f bd4f 303f ce45 0240
00000090: 6498 a03e 1db6 583f 57a0 093f 9655 703e
000000a0: 56a8 0c40 9d0d b23e f3b4 ef3e 450f fe3e
000000b0: dd46 6f3e cb44 7e3e 1461 c03f 7027 903f
000000c0: 5298 953e fc0d 533f d313 133e c5dc e03e
000000d0: fc0e 933e 46d8 eb3e 9789 973e 5113 b43e
000000e0: ae0b 823e 3b89 7d3e a528 8040 3522 793f
000000f0: 4a53 423e 49fc 613e 360f a93e c0b7 6b3e
0.16143921 2.7739193 0.18172704 0.19905166 0.39380446 0.83442426 1.6296117 0.6324532
0.38344374 1.6607175 0.28023672 0.7325174 0.07966117 0.36582696 1.581966 0.15883298
0.5058874 1.3175906 0.79555786 0.3180227 0.34003696 0.6630467 0.31057033 0.33983022
1.7103801 0.30010232 0.34138978 0.4246094 0.4187695 0.033885535 1.4049925 0.2718542
0.14301272 1.9100225 0.6887167 2.0355105 0.31366265 0.8465288 0.53760284 0.23470148
2.1977744 0.3477601 0.4681774 0.49621025 0.23366876 0.2483093 1.5029626 1.1262035
0.29217774 0.82443213 0.14363031 0.43918434 0.2872237 0.4606344 0.2959716 0.35170987
0.25399536 0.2475938 4.0049615 0.9731782 0.18977085 0.22068895 0.33019418 0.23019314

bias f4 [64]
00000000: b2ac 1fbf 29ba b7be bacb 23bf 67bd 24bf
00000010: 2ac1 16bf 5f26 abbf aab7 fabf 95ea 82bf
00000020: 72bb 0cbf 41e2 47bf 7a76 2abf b9b7 9ebf
00000030: bb2e 0abf 5ca3 50bf 27c9 65be d8d9 3fbf
00000040: c51e a1bf 926d 21bf 4854 6f3f 98d7 2fbf
00000050: 7718 53bf 57ec 2fbf b1f4 2dbf f826 0ebf
00000060: 6dcd e7bf dda1 37bf c500 2bbf 7831 dfbe
00000070: 18ca 7bbf 776e 5fbe 0d18 3abe cad5 13bf
00000080: 5f76 83be e0ba 29bf 9844 64bf 8176 e23e
00000090: e91e e4be 89a8 d6bf 532c a7bf 7bf0 14bf
000000a0: 4166 61bf 350f 21bf 6171 4dbf f85c a2bf
000000b0: e75c 06bf 8e4d 31bf e566 2b3e 6933 373f
000000c0: 65b4 13bf 669f abbf 211d 0fbf c82b 3ebf
000000d0: 7623 07bf 9838 0fbf 02de 52bf 56b2 18bf
000000e0: 38b8 16bf 1fcc 08bf 3c47 53bf 9d24 8dbf
000000f0: 8243 35bf 8794 81bf 1dfd 15bf a73d dbbe
-0.6237289 -0.35884216 -0.6398274 -0.64351505 -0.58888495 -1.3371085 -1.95873 -1.0227839
-0.5497352 -0.7807961 -0.6658703 -1.2399818 -0.53977555 -0.81499267 -0.22440015 -0.7494178
-1.2587515 -0.63057816 0.9348798 -0.68688345 -0.82459205 -0.6872 -0.67951494 -0.5552821
-1.8109566 -0.7173136 -0.6679805 -0.4359243 -0.98355246 -0.21819483 -0.18173237 -0.5774809
-0.25676247 -0.66300774 -0.89167166 0.44231036 -0.44554833 -1.6770183 -1.3060402 -0.58179444
-0.8804665 -0.6291383 -0.8025113 -1.2684622 -0.5248551 -0.69258964 0.1673847 0.7156282
-0.57697135 -1.340802 -0.5590382 -0.74285555 -0.52788484 -0.5594573 -0.8237001 -0.5964712
-0.58874846 -0.53436464 -0.8253057 -1.1026798 -0.70806134 -1.0123452 -0.58589345 -0.42820475
